{"format": "graph-model", "generatedBy": "2.16.1", "convertedBy": "TensorFlow.js Converter v4.19.0", "signature": {"inputs": {"input": {"name": "input:0", "dtype": "DT_FLOAT", "tensorShape": {"dim": [{"size": "-1"}, {"size": "32"}, {"size": "128"}, {"size": "3"}]}}}, "outputs": {"output": {"name": "Identity:0", "dtype": "DT_FLOAT", "tensorShape": {"dim": [{"size": "-1"}, {"size": "64"}, {"size": "75"}]}}}}, "modelTopology": {"node": [{"name": "StatefulPartitionedCall/model/output/Tensordot/Const", "op": "Const", "attr": {"value": {"tensor": {"dtype": "DT_INT32", "tensorShape": {"dim": [{"size": "1"}]}}}, "dtype": {"type": "DT_INT32"}}}, {"name": "StatefulPartitionedCall/model/output/Tensordot/axes", "op": "Const", "attr": {"dtype": {"type": "DT_INT32"}, "value": {"tensor": {"dtype": "DT_INT32", "tensorShape": {"dim": [{"size": "1"}]}}}}}, {"name": "StatefulPartitionedCall/model/output/Tensordot/GatherV2_1/axis", "op": "Const", "attr": {"dtype": {"type": "DT_INT32"}, "value": {"tensor": {"dtype": "DT_INT32", "tensorShape": {}}}}}, {"name": "StatefulPartitionedCall/model/output/Tensordot/Const_1", "op": "Const", "attr": {"value": {"tensor": {"dtype": "DT_INT32", "tensorShape": {"dim": [{"size": "1"}]}}}, "dtype": {"type": "DT_INT32"}}}, {"name": "StatefulPartitionedCall/model/output/Tensordot/ReadVariableOp", "op": "Const", "attr": {"dtype": {"type": "DT_FLOAT"}, "value": {"tensor": {"dtype": "DT_FLOAT", "tensorShape": {"dim": [{"size": "256"}, {"size": "75"}]}}}}}, {"name": "StatefulPartitionedCall/model/bidirectional/forward_lstm/PartitionedCall/TensorArrayV2_1/element_shape", "op": "Const", "attr": {"value": {"tensor": {"dtype": "DT_INT32", "tensorShape": {"dim": [{"size": "2"}]}}}, "dtype": {"type": "DT_INT32"}}}, {"name": "StatefulPartitionedCall/model/bidirectional/forward_lstm/zeros_1/packed/1", "op": "Const", "attr": {"value": {"tensor": {"dtype": "DT_INT32", "tensorShape": {}}}, "dtype": {"type": "DT_INT32"}}}, {"name": "StatefulPartitionedCall/model/bidirectional/forward_lstm/zeros_1/Const", "op": "Const", "attr": {"value": {"tensor": {"dtype": "DT_FLOAT", "tensorShape": {}}}, "dtype": {"type": "DT_FLOAT"}}}, {"name": "StatefulPartitionedCall/model/bidirectional/forward_lstm/PartitionedCall/TensorArrayUnstack/TensorListFromTensor/element_shape", "op": "Const", "attr": {"value": {"tensor": {"dtype": "DT_INT32", "tensorShape": {"dim": [{"size": "2"}]}}}, "dtype": {"type": "DT_INT32"}}}, {"name": "StatefulPartitionedCall/model/bidirectional/forward_lstm/Read/ReadVariableOp", "op": "Const", "attr": {"value": {"tensor": {"dtype": "DT_FLOAT", "tensorShape": {"dim": [{"size": "64"}, {"size": "512"}]}}}, "dtype": {"type": "DT_FLOAT"}}}, {"name": "StatefulPartitionedCall/model/bidirectional/forward_lstm/strided_slice/stack", "op": "Const", "attr": {"dtype": {"type": "DT_INT32"}, "value": {"tensor": {"dtype": "DT_INT32", "tensorShape": {"dim": [{"size": "1"}]}}}}}, {"name": "StatefulPartitionedCall/model/bidirectional/forward_lstm/strided_slice/stack_1", "op": "Const", "attr": {"value": {"tensor": {"dtype": "DT_INT32", "tensorShape": {"dim": [{"size": "1"}]}}}, "dtype": {"type": "DT_INT32"}}}, {"name": "StatefulPartitionedCall/model/bidirectional/forward_lstm/strided_slice/stack_2", "op": "Const", "attr": {"value": {"tensor": {"dtype": "DT_INT32", "tensorShape": {"dim": [{"size": "1"}]}}}, "dtype": {"type": "DT_INT32"}}}, {"name": "StatefulPartitionedCall/model/bidirectional/forward_lstm/zeros/packed/1", "op": "Const", "attr": {"dtype": {"type": "DT_INT32"}, "value": {"tensor": {"dtype": "DT_INT32", "tensorShape": {}}}}}, {"name": "StatefulPartitionedCall/model/bidirectional/forward_lstm/zeros/Const", "op": "Const", "attr": {"value": {"tensor": {"dtype": "DT_FLOAT", "tensorShape": {}}}, "dtype": {"type": "DT_FLOAT"}}}, {"name": "StatefulPartitionedCall/model/bidirectional/forward_lstm/Read_1/ReadVariableOp", "op": "Const", "attr": {"dtype": {"type": "DT_FLOAT"}, "value": {"tensor": {"dtype": "DT_FLOAT", "tensorShape": {"dim": [{"size": "128"}, {"size": "512"}]}}}}}, {"name": "StatefulPartitionedCall/model/bidirectional/forward_lstm/Read_2/ReadVariableOp", "op": "Const", "attr": {"value": {"tensor": {"dtype": "DT_FLOAT", "tensorShape": {"dim": [{"size": "512"}]}}}, "dtype": {"type": "DT_FLOAT"}}}, {"name": "StatefulPartitionedCall/model/bidirectional/forward_lstm/PartitionedCall/time", "op": "Const", "attr": {"dtype": {"type": "DT_INT32"}, "value": {"tensor": {"dtype": "DT_INT32", "tensorShape": {}}}}}, {"name": "StatefulPartitionedCall/model/bidirectional/forward_lstm/PartitionedCall/transpose/perm", "op": "Const", "attr": {"value": {"tensor": {"dtype": "DT_INT32", "tensorShape": {"dim": [{"size": "3"}]}}}, "dtype": {"type": "DT_INT32"}}}, {"name": "StatefulPartitionedCall/model/bidirectional/forward_lstm/PartitionedCall/strided_slice/stack", "op": "Const", "attr": {"value": {"tensor": {"dtype": "DT_INT32", "tensorShape": {"dim": [{"size": "1"}]}}}, "dtype": {"type": "DT_INT32"}}}, {"name": "StatefulPartitionedCall/model/bidirectional/forward_lstm/PartitionedCall/strided_slice/stack_1", "op": "Const", "attr": {"value": {"tensor": {"dtype": "DT_INT32", "tensorShape": {"dim": [{"size": "1"}]}}}, "dtype": {"type": "DT_INT32"}}}, {"name": "StatefulPartitionedCall/model/bidirectional/forward_lstm/PartitionedCall/strided_slice/stack_2", "op": "Const", "attr": {"dtype": {"type": "DT_INT32"}, "value": {"tensor": {"dtype": "DT_INT32", "tensorShape": {"dim": [{"size": "1"}]}}}}}, {"name": "StatefulPartitionedCall/model/bidirectional/forward_lstm/PartitionedCall/while/loop_counter", "op": "Const", "attr": {"value": {"tensor": {"dtype": "DT_INT32", "tensorShape": {}}}, "dtype": {"type": "DT_INT32"}}}, {"name": "StatefulPartitionedCall/model/bidirectional/forward_lstm/PartitionedCall/TensorArrayV2Stack/TensorListStack/element_shape", "op": "Const", "attr": {"value": {"tensor": {"dtype": "DT_INT32", "tensorShape": {"dim": [{"size": "2"}]}}}, "dtype": {"type": "DT_INT32"}}}, {"name": "StatefulPartitionedCall/model/bidirectional/forward_lstm/PartitionedCall/transpose_1/perm", "op": "Const", "attr": {"value": {"tensor": {"dtype": "DT_INT32", "tensorShape": {"dim": [{"size": "3"}]}}}, "dtype": {"type": "DT_INT32"}}}, {"name": "StatefulPartitionedCall/model/bidirectional/backward_lstm/PartitionedCall/TensorArrayV2_1/element_shape", "op": "Const", "attr": {"value": {"tensor": {"dtype": "DT_INT32", "tensorShape": {"dim": [{"size": "2"}]}}}, "dtype": {"type": "DT_INT32"}}}, {"name": "StatefulPartitionedCall/model/bidirectional/backward_lstm/zeros_1/packed/1", "op": "Const", "attr": {"dtype": {"type": "DT_INT32"}, "value": {"tensor": {"dtype": "DT_INT32", "tensorShape": {}}}}}, {"name": "StatefulPartitionedCall/model/bidirectional/backward_lstm/zeros_1/Const", "op": "Const", "attr": {"value": {"tensor": {"dtype": "DT_FLOAT", "tensorShape": {}}}, "dtype": {"type": "DT_FLOAT"}}}, {"name": "StatefulPartitionedCall/model/bidirectional/backward_lstm/PartitionedCall/ReverseV2/axis", "op": "Const", "attr": {"dtype": {"type": "DT_INT32"}, "value": {"tensor": {"dtype": "DT_INT32", "tensorShape": {"dim": [{"size": "1"}]}}}}}, {"name": "StatefulPartitionedCall/model/bidirectional/backward_lstm/PartitionedCall/TensorArrayUnstack/TensorListFromTensor/element_shape", "op": "Const", "attr": {"value": {"tensor": {"dtype": "DT_INT32", "tensorShape": {"dim": [{"size": "2"}]}}}, "dtype": {"type": "DT_INT32"}}}, {"name": "StatefulPartitionedCall/model/bidirectional/backward_lstm/Read/ReadVariableOp", "op": "Const", "attr": {"value": {"tensor": {"dtype": "DT_FLOAT", "tensorShape": {"dim": [{"size": "64"}, {"size": "512"}]}}}, "dtype": {"type": "DT_FLOAT"}}}, {"name": "StatefulPartitionedCall/model/bidirectional/backward_lstm/strided_slice/stack", "op": "Const", "attr": {"dtype": {"type": "DT_INT32"}, "value": {"tensor": {"dtype": "DT_INT32", "tensorShape": {"dim": [{"size": "1"}]}}}}}, {"name": "StatefulPartitionedCall/model/bidirectional/backward_lstm/strided_slice/stack_1", "op": "Const", "attr": {"value": {"tensor": {"dtype": "DT_INT32", "tensorShape": {"dim": [{"size": "1"}]}}}, "dtype": {"type": "DT_INT32"}}}, {"name": "StatefulPartitionedCall/model/bidirectional/backward_lstm/strided_slice/stack_2", "op": "Const", "attr": {"value": {"tensor": {"dtype": "DT_INT32", "tensorShape": {"dim": [{"size": "1"}]}}}, "dtype": {"type": "DT_INT32"}}}, {"name": "StatefulPartitionedCall/model/bidirectional/backward_lstm/zeros/packed/1", "op": "Const", "attr": {"value": {"tensor": {"dtype": "DT_INT32", "tensorShape": {}}}, "dtype": {"type": "DT_INT32"}}}, {"name": "StatefulPartitionedCall/model/bidirectional/backward_lstm/zeros/Const", "op": "Const", "attr": {"dtype": {"type": "DT_FLOAT"}, "value": {"tensor": {"dtype": "DT_FLOAT", "tensorShape": {}}}}}, {"name": "StatefulPartitionedCall/model/bidirectional/backward_lstm/Read_1/ReadVariableOp", "op": "Const", "attr": {"value": {"tensor": {"dtype": "DT_FLOAT", "tensorShape": {"dim": [{"size": "128"}, {"size": "512"}]}}}, "dtype": {"type": "DT_FLOAT"}}}, {"name": "StatefulPartitionedCall/model/bidirectional/backward_lstm/Read_2/ReadVariableOp", "op": "Const", "attr": {"value": {"tensor": {"dtype": "DT_FLOAT", "tensorShape": {"dim": [{"size": "512"}]}}}, "dtype": {"type": "DT_FLOAT"}}}, {"name": "StatefulPartitionedCall/model/bidirectional/backward_lstm/PartitionedCall/time", "op": "Const", "attr": {"value": {"tensor": {"dtype": "DT_INT32", "tensorShape": {}}}, "dtype": {"type": "DT_INT32"}}}, {"name": "ConstantFolding/StatefulPartitionedCall/model/lambda/truediv_recip", "op": "Const", "attr": {"value": {"tensor": {"dtype": "DT_FLOAT", "tensorShape": {}}}, "dtype": {"type": "DT_FLOAT"}}}, {"name": "StatefulPartitionedCall/model/conv2d_2/Conv2D/ReadVariableOp", "op": "Const", "attr": {"value": {"tensor": {"dtype": "DT_FLOAT", "tensorShape": {"dim": [{"size": "1"}, {"size": "1"}, {"size": "3"}, {"size": "16"}]}}}, "dtype": {"type": "DT_FLOAT"}}}, {"name": "StatefulPartitionedCall/model/conv2d_2/BiasAdd/ReadVariableOp", "op": "Const", "attr": {"dtype": {"type": "DT_FLOAT"}, "value": {"tensor": {"dtype": "DT_FLOAT", "tensorShape": {"dim": [{"size": "16"}]}}}}}, {"name": "StatefulPartitionedCall/model/conv2d_5/Conv2D/ReadVariableOp", "op": "Const", "attr": {"value": {"tensor": {"dtype": "DT_FLOAT", "tensorShape": {"dim": [{"size": "1"}, {"size": "1"}, {"size": "16"}, {"size": "16"}]}}}, "dtype": {"type": "DT_FLOAT"}}}, {"name": "StatefulPartitionedCall/model/conv2d_5/BiasAdd/ReadVariableOp", "op": "Const", "attr": {"dtype": {"type": "DT_FLOAT"}, "value": {"tensor": {"dtype": "DT_FLOAT", "tensorShape": {"dim": [{"size": "16"}]}}}}}, {"name": "StatefulPartitionedCall/model/conv2d_10/Conv2D/ReadVariableOp", "op": "Const", "attr": {"value": {"tensor": {"dtype": "DT_FLOAT", "tensorShape": {"dim": [{"size": "1"}, {"size": "1"}, {"size": "16"}, {"size": "32"}]}}}, "dtype": {"type": "DT_FLOAT"}}}, {"name": "StatefulPartitionedCall/model/conv2d_10/BiasAdd/ReadVariableOp", "op": "Const", "attr": {"value": {"tensor": {"dtype": "DT_FLOAT", "tensorShape": {"dim": [{"size": "32"}]}}}, "dtype": {"type": "DT_FLOAT"}}}, {"name": "StatefulPartitionedCall/model/conv2d_15/Conv2D/ReadVariableOp", "op": "Const", "attr": {"dtype": {"type": "DT_FLOAT"}, "value": {"tensor": {"dtype": "DT_FLOAT", "tensorShape": {"dim": [{"size": "1"}, {"size": "1"}, {"size": "32"}, {"size": "64"}]}}}}}, {"name": "StatefulPartitionedCall/model/conv2d_15/BiasAdd/ReadVariableOp", "op": "Const", "attr": {"dtype": {"type": "DT_FLOAT"}, "value": {"tensor": {"dtype": "DT_FLOAT", "tensorShape": {"dim": [{"size": "64"}]}}}}}, {"name": "StatefulPartitionedCall/model/conv2d_18/Conv2D/ReadVariableOp", "op": "Const", "attr": {"value": {"tensor": {"dtype": "DT_FLOAT", "tensorShape": {"dim": [{"size": "1"}, {"size": "1"}, {"size": "64"}, {"size": "64"}]}}}, "dtype": {"type": "DT_FLOAT"}}}, {"name": "StatefulPartitionedCall/model/conv2d_18/BiasAdd/ReadVariableOp", "op": "Const", "attr": {"dtype": {"type": "DT_FLOAT"}, "value": {"tensor": {"dtype": "DT_FLOAT", "tensorShape": {"dim": [{"size": "64"}]}}}}}, {"name": "StatefulPartitionedCall/model/reshape/strided_slice/stack", "op": "Const", "attr": {"value": {"tensor": {"dtype": "DT_INT32", "tensorShape": {"dim": [{"size": "1"}]}}}, "dtype": {"type": "DT_INT32"}}}, {"name": "StatefulPartitionedCall/model/reshape/strided_slice/stack_1", "op": "Const", "attr": {"dtype": {"type": "DT_INT32"}, "value": {"tensor": {"dtype": "DT_INT32", "tensorShape": {"dim": [{"size": "1"}]}}}}}, {"name": "StatefulPartitionedCall/model/reshape/strided_slice/stack_2", "op": "Const", "attr": {"value": {"tensor": {"dtype": "DT_INT32", "tensorShape": {"dim": [{"size": "1"}]}}}, "dtype": {"type": "DT_INT32"}}}, {"name": "StatefulPartitionedCall/model/reshape/Reshape/shape/1", "op": "Const", "attr": {"value": {"tensor": {"dtype": "DT_INT32", "tensorShape": {}}}, "dtype": {"type": "DT_INT32"}}}, {"name": "StatefulPartitionedCall/model/reshape/Reshape/shape/2", "op": "Const", "attr": {"value": {"tensor": {"dtype": "DT_INT32", "tensorShape": {}}}, "dtype": {"type": "DT_INT32"}}}, {"name": "StatefulPartitionedCall/model/bidirectional/backward_lstm/PartitionedCall/transpose/perm", "op": "Const", "attr": {"value": {"tensor": {"dtype": "DT_INT32", "tensorShape": {"dim": [{"size": "3"}]}}}, "dtype": {"type": "DT_INT32"}}}, {"name": "StatefulPartitionedCall/model/bidirectional/backward_lstm/PartitionedCall/strided_slice/stack", "op": "Const", "attr": {"dtype": {"type": "DT_INT32"}, "value": {"tensor": {"dtype": "DT_INT32", "tensorShape": {"dim": [{"size": "1"}]}}}}}, {"name": "StatefulPartitionedCall/model/bidirectional/backward_lstm/PartitionedCall/strided_slice/stack_1", "op": "Const", "attr": {"value": {"tensor": {"dtype": "DT_INT32", "tensorShape": {"dim": [{"size": "1"}]}}}, "dtype": {"type": "DT_INT32"}}}, {"name": "StatefulPartitionedCall/model/bidirectional/backward_lstm/PartitionedCall/strided_slice/stack_2", "op": "Const", "attr": {"dtype": {"type": "DT_INT32"}, "value": {"tensor": {"dtype": "DT_INT32", "tensorShape": {"dim": [{"size": "1"}]}}}}}, {"name": "StatefulPartitionedCall/model/bidirectional/backward_lstm/PartitionedCall/while/loop_counter", "op": "Const", "attr": {"value": {"tensor": {"dtype": "DT_INT32", "tensorShape": {}}}, "dtype": {"type": "DT_INT32"}}}, {"name": "StatefulPartitionedCall/model/bidirectional/backward_lstm/PartitionedCall/TensorArrayV2Stack/TensorListStack/element_shape", "op": "Const", "attr": {"value": {"tensor": {"dtype": "DT_INT32", "tensorShape": {"dim": [{"size": "2"}]}}}, "dtype": {"type": "DT_INT32"}}}, {"name": "StatefulPartitionedCall/model/bidirectional/backward_lstm/PartitionedCall/transpose_1/perm", "op": "Const", "attr": {"value": {"tensor": {"dtype": "DT_INT32", "tensorShape": {"dim": [{"size": "3"}]}}}, "dtype": {"type": "DT_INT32"}}}, {"name": "StatefulPartitionedCall/model/bidirectional/ReverseV2/axis", "op": "Const", "attr": {"dtype": {"type": "DT_INT32"}, "value": {"tensor": {"dtype": "DT_INT32", "tensorShape": {"dim": [{"size": "1"}]}}}}}, {"name": "StatefulPartitionedCall/model/bidirectional/concat/axis", "op": "Const", "attr": {"value": {"tensor": {"dtype": "DT_INT32", "tensorShape": {}}}, "dtype": {"type": "DT_INT32"}}}, {"name": "StatefulPartitionedCall/model/output/Tensordot/free", "op": "Const", "attr": {"value": {"tensor": {"dtype": "DT_INT32", "tensorShape": {"dim": [{"size": "2"}]}}}, "dtype": {"type": "DT_INT32"}}}, {"name": "StatefulPartitionedCall/model/output/Tensordot/GatherV2/axis", "op": "Const", "attr": {"dtype": {"type": "DT_INT32"}, "value": {"tensor": {"dtype": "DT_INT32", "tensorShape": {}}}}}, {"name": "StatefulPartitionedCall/model/output/Tensordot/Const_2", "op": "Const", "attr": {"value": {"tensor": {"dtype": "DT_INT32", "tensorShape": {"dim": [{"size": "1"}]}}}, "dtype": {"type": "DT_INT32"}}}, {"name": "StatefulPartitionedCall/model/output/Tensordot/concat_1/axis", "op": "Const", "attr": {"dtype": {"type": "DT_INT32"}, "value": {"tensor": {"dtype": "DT_INT32", "tensorShape": {}}}}}, {"name": "StatefulPartitionedCall/model/output/BiasAdd/ReadVariableOp", "op": "Const", "attr": {"value": {"tensor": {"dtype": "DT_FLOAT", "tensorShape": {"dim": [{"size": "75"}]}}}, "dtype": {"type": "DT_FLOAT"}}}, {"name": "input", "op": "Placeholder", "attr": {"dtype": {"type": "DT_FLOAT"}, "shape": {"shape": {"dim": [{"size": "-1"}, {"size": "32"}, {"size": "128"}, {"size": "3"}]}}}}, {"name": "StatefulPartitionedCall/model/conv2d/Conv2D_weights", "op": "Const", "attr": {"value": {"tensor": {"dtype": "DT_FLOAT", "tensorShape": {"dim": [{"size": "3"}, {"size": "3"}, {"size": "3"}, {"size": "16"}]}}}, "dtype": {"type": "DT_FLOAT"}}}, {"name": "StatefulPartitionedCall/model/conv2d/Conv2D_bn_offset", "op": "Const", "attr": {"dtype": {"type": "DT_FLOAT"}, "value": {"tensor": {"dtype": "DT_FLOAT", "tensorShape": {"dim": [{"size": "16"}]}}}}}, {"name": "StatefulPartitionedCall/model/conv2d_1/Conv2D_weights", "op": "Const", "attr": {"dtype": {"type": "DT_FLOAT"}, "value": {"tensor": {"dtype": "DT_FLOAT", "tensorShape": {"dim": [{"size": "3"}, {"size": "3"}, {"size": "16"}, {"size": "16"}]}}}}}, {"name": "StatefulPartitionedCall/model/conv2d_1/Conv2D_bn_offset", "op": "Const", "attr": {"value": {"tensor": {"dtype": "DT_FLOAT", "tensorShape": {"dim": [{"size": "16"}]}}}, "dtype": {"type": "DT_FLOAT"}}}, {"name": "StatefulPartitionedCall/model/conv2d_3/Conv2D_weights", "op": "Const", "attr": {"value": {"tensor": {"dtype": "DT_FLOAT", "tensorShape": {"dim": [{"size": "3"}, {"size": "3"}, {"size": "16"}, {"size": "16"}]}}}, "dtype": {"type": "DT_FLOAT"}}}, {"name": "StatefulPartitionedCall/model/conv2d_3/Conv2D_bn_offset", "op": "Const", "attr": {"dtype": {"type": "DT_FLOAT"}, "value": {"tensor": {"dtype": "DT_FLOAT", "tensorShape": {"dim": [{"size": "16"}]}}}}}, {"name": "StatefulPartitionedCall/model/conv2d_4/Conv2D_weights", "op": "Const", "attr": {"value": {"tensor": {"dtype": "DT_FLOAT", "tensorShape": {"dim": [{"size": "3"}, {"size": "3"}, {"size": "16"}, {"size": "16"}]}}}, "dtype": {"type": "DT_FLOAT"}}}, {"name": "StatefulPartitionedCall/model/conv2d_4/Conv2D_bn_offset", "op": "Const", "attr": {"value": {"tensor": {"dtype": "DT_FLOAT", "tensorShape": {"dim": [{"size": "16"}]}}}, "dtype": {"type": "DT_FLOAT"}}}, {"name": "StatefulPartitionedCall/model/conv2d_6/Conv2D_weights", "op": "Const", "attr": {"value": {"tensor": {"dtype": "DT_FLOAT", "tensorShape": {"dim": [{"size": "3"}, {"size": "3"}, {"size": "16"}, {"size": "16"}]}}}, "dtype": {"type": "DT_FLOAT"}}}, {"name": "StatefulPartitionedCall/model/conv2d_6/Conv2D_bn_offset", "op": "Const", "attr": {"value": {"tensor": {"dtype": "DT_FLOAT", "tensorShape": {"dim": [{"size": "16"}]}}}, "dtype": {"type": "DT_FLOAT"}}}, {"name": "StatefulPartitionedCall/model/conv2d_7/Conv2D_weights", "op": "Const", "attr": {"dtype": {"type": "DT_FLOAT"}, "value": {"tensor": {"dtype": "DT_FLOAT", "tensorShape": {"dim": [{"size": "3"}, {"size": "3"}, {"size": "16"}, {"size": "16"}]}}}}}, {"name": "StatefulPartitionedCall/model/conv2d_7/Conv2D_bn_offset", "op": "Const", "attr": {"value": {"tensor": {"dtype": "DT_FLOAT", "tensorShape": {"dim": [{"size": "16"}]}}}, "dtype": {"type": "DT_FLOAT"}}}, {"name": "StatefulPartitionedCall/model/conv2d_8/Conv2D_weights", "op": "Const", "attr": {"dtype": {"type": "DT_FLOAT"}, "value": {"tensor": {"dtype": "DT_FLOAT", "tensorShape": {"dim": [{"size": "3"}, {"size": "3"}, {"size": "16"}, {"size": "32"}]}}}}}, {"name": "StatefulPartitionedCall/model/conv2d_8/Conv2D_bn_offset", "op": "Const", "attr": {"value": {"tensor": {"dtype": "DT_FLOAT", "tensorShape": {"dim": [{"size": "32"}]}}}, "dtype": {"type": "DT_FLOAT"}}}, {"name": "StatefulPartitionedCall/model/conv2d_9/Conv2D_weights", "op": "Const", "attr": {"dtype": {"type": "DT_FLOAT"}, "value": {"tensor": {"dtype": "DT_FLOAT", "tensorShape": {"dim": [{"size": "3"}, {"size": "3"}, {"size": "32"}, {"size": "32"}]}}}}}, {"name": "StatefulPartitionedCall/model/conv2d_9/Conv2D_bn_offset", "op": "Const", "attr": {"value": {"tensor": {"dtype": "DT_FLOAT", "tensorShape": {"dim": [{"size": "32"}]}}}, "dtype": {"type": "DT_FLOAT"}}}, {"name": "StatefulPartitionedCall/model/conv2d_11/Conv2D_weights", "op": "Const", "attr": {"dtype": {"type": "DT_FLOAT"}, "value": {"tensor": {"dtype": "DT_FLOAT", "tensorShape": {"dim": [{"size": "3"}, {"size": "3"}, {"size": "32"}, {"size": "32"}]}}}}}, {"name": "StatefulPartitionedCall/model/conv2d_11/Conv2D_bn_offset", "op": "Const", "attr": {"value": {"tensor": {"dtype": "DT_FLOAT", "tensorShape": {"dim": [{"size": "32"}]}}}, "dtype": {"type": "DT_FLOAT"}}}, {"name": "StatefulPartitionedCall/model/conv2d_12/Conv2D_weights", "op": "Const", "attr": {"value": {"tensor": {"dtype": "DT_FLOAT", "tensorShape": {"dim": [{"size": "3"}, {"size": "3"}, {"size": "32"}, {"size": "32"}]}}}, "dtype": {"type": "DT_FLOAT"}}}, {"name": "StatefulPartitionedCall/model/conv2d_12/Conv2D_bn_offset", "op": "Const", "attr": {"dtype": {"type": "DT_FLOAT"}, "value": {"tensor": {"dtype": "DT_FLOAT", "tensorShape": {"dim": [{"size": "32"}]}}}}}, {"name": "StatefulPartitionedCall/model/conv2d_13/Conv2D_weights", "op": "Const", "attr": {"value": {"tensor": {"dtype": "DT_FLOAT", "tensorShape": {"dim": [{"size": "3"}, {"size": "3"}, {"size": "32"}, {"size": "64"}]}}}, "dtype": {"type": "DT_FLOAT"}}}, {"name": "StatefulPartitionedCall/model/conv2d_13/Conv2D_bn_offset", "op": "Const", "attr": {"dtype": {"type": "DT_FLOAT"}, "value": {"tensor": {"dtype": "DT_FLOAT", "tensorShape": {"dim": [{"size": "64"}]}}}}}, {"name": "StatefulPartitionedCall/model/conv2d_14/Conv2D_weights", "op": "Const", "attr": {"value": {"tensor": {"dtype": "DT_FLOAT", "tensorShape": {"dim": [{"size": "3"}, {"size": "3"}, {"size": "64"}, {"size": "64"}]}}}, "dtype": {"type": "DT_FLOAT"}}}, {"name": "StatefulPartitionedCall/model/conv2d_14/Conv2D_bn_offset", "op": "Const", "attr": {"value": {"tensor": {"dtype": "DT_FLOAT", "tensorShape": {"dim": [{"size": "64"}]}}}, "dtype": {"type": "DT_FLOAT"}}}, {"name": "StatefulPartitionedCall/model/conv2d_16/Conv2D_weights", "op": "Const", "attr": {"value": {"tensor": {"dtype": "DT_FLOAT", "tensorShape": {"dim": [{"size": "3"}, {"size": "3"}, {"size": "64"}, {"size": "64"}]}}}, "dtype": {"type": "DT_FLOAT"}}}, {"name": "StatefulPartitionedCall/model/conv2d_16/Conv2D_bn_offset", "op": "Const", "attr": {"value": {"tensor": {"dtype": "DT_FLOAT", "tensorShape": {"dim": [{"size": "64"}]}}}, "dtype": {"type": "DT_FLOAT"}}}, {"name": "StatefulPartitionedCall/model/conv2d_17/Conv2D_weights", "op": "Const", "attr": {"value": {"tensor": {"dtype": "DT_FLOAT", "tensorShape": {"dim": [{"size": "3"}, {"size": "3"}, {"size": "64"}, {"size": "64"}]}}}, "dtype": {"type": "DT_FLOAT"}}}, {"name": "StatefulPartitionedCall/model/conv2d_17/Conv2D_bn_offset", "op": "Const", "attr": {"value": {"tensor": {"dtype": "DT_FLOAT", "tensorShape": {"dim": [{"size": "64"}]}}}, "dtype": {"type": "DT_FLOAT"}}}, {"name": "StatefulPartitionedCall/model/conv2d_19/Conv2D_weights", "op": "Const", "attr": {"dtype": {"type": "DT_FLOAT"}, "value": {"tensor": {"dtype": "DT_FLOAT", "tensorShape": {"dim": [{"size": "3"}, {"size": "3"}, {"size": "64"}, {"size": "64"}]}}}}}, {"name": "StatefulPartitionedCall/model/conv2d_19/Conv2D_bn_offset", "op": "Const", "attr": {"value": {"tensor": {"dtype": "DT_FLOAT", "tensorShape": {"dim": [{"size": "64"}]}}}, "dtype": {"type": "DT_FLOAT"}}}, {"name": "StatefulPartitionedCall/model/conv2d_20/Conv2D_weights", "op": "Const", "attr": {"dtype": {"type": "DT_FLOAT"}, "value": {"tensor": {"dtype": "DT_FLOAT", "tensorShape": {"dim": [{"size": "3"}, {"size": "3"}, {"size": "64"}, {"size": "64"}]}}}}}, {"name": "StatefulPartitionedCall/model/conv2d_20/Conv2D_bn_offset", "op": "Const", "attr": {"dtype": {"type": "DT_FLOAT"}, "value": {"tensor": {"dtype": "DT_FLOAT", "tensorShape": {"dim": [{"size": "64"}]}}}}}, {"name": "StatefulPartitionedCall/model/conv2d_21/Conv2D_weights", "op": "Const", "attr": {"value": {"tensor": {"dtype": "DT_FLOAT", "tensorShape": {"dim": [{"size": "3"}, {"size": "3"}, {"size": "64"}, {"size": "64"}]}}}, "dtype": {"type": "DT_FLOAT"}}}, {"name": "StatefulPartitionedCall/model/conv2d_21/Conv2D_bn_offset", "op": "Const", "attr": {"value": {"tensor": {"dtype": "DT_FLOAT", "tensorShape": {"dim": [{"size": "64"}]}}}, "dtype": {"type": "DT_FLOAT"}}}, {"name": "StatefulPartitionedCall/model/conv2d_22/Conv2D_weights", "op": "Const", "attr": {"dtype": {"type": "DT_FLOAT"}, "value": {"tensor": {"dtype": "DT_FLOAT", "tensorShape": {"dim": [{"size": "3"}, {"size": "3"}, {"size": "64"}, {"size": "64"}]}}}}}, {"name": "StatefulPartitionedCall/model/conv2d_22/Conv2D_bn_offset", "op": "Const", "attr": {"dtype": {"type": "DT_FLOAT"}, "value": {"tensor": {"dtype": "DT_FLOAT", "tensorShape": {"dim": [{"size": "64"}]}}}}}, {"name": "StatefulPartitionedCall/model/bidirectional/forward_lstm/PartitionedCall/while/enter/_161", "op": "Enter", "input": ["StatefulPartitionedCall/model/bidirectional/forward_lstm/Read/ReadVariableOp"], "attr": {"parallel_iterations": {"i": "32"}, "is_constant": {"b": false}, "T": {"type": "DT_FLOAT"}, "frame_name": {"s": "U3RhdGVmdWxQYXJ0aXRpb25lZENhbGwvbW9kZWwvYmlkaXJlY3Rpb25hbC9mb3J3YXJkX2xzdG0vUGFydGl0aW9uZWRDYWxsL3doaWxl"}}}, {"name": "StatefulPartitionedCall/model/bidirectional/forward_lstm/PartitionedCall/while/enter/_162", "op": "Enter", "input": ["StatefulPartitionedCall/model/bidirectional/forward_lstm/Read_1/ReadVariableOp"], "attr": {"frame_name": {"s": "U3RhdGVmdWxQYXJ0aXRpb25lZENhbGwvbW9kZWwvYmlkaXJlY3Rpb25hbC9mb3J3YXJkX2xzdG0vUGFydGl0aW9uZWRDYWxsL3doaWxl"}, "parallel_iterations": {"i": "32"}, "T": {"type": "DT_FLOAT"}, "is_constant": {"b": false}}}, {"name": "StatefulPartitionedCall/model/bidirectional/forward_lstm/PartitionedCall/while/enter/_163", "op": "Enter", "input": ["StatefulPartitionedCall/model/bidirectional/forward_lstm/Read_2/ReadVariableOp"], "attr": {"T": {"type": "DT_FLOAT"}, "frame_name": {"s": "U3RhdGVmdWxQYXJ0aXRpb25lZENhbGwvbW9kZWwvYmlkaXJlY3Rpb25hbC9mb3J3YXJkX2xzdG0vUGFydGl0aW9uZWRDYWxsL3doaWxl"}, "is_constant": {"b": false}, "parallel_iterations": {"i": "32"}}}, {"name": "StatefulPartitionedCall/model/bidirectional/forward_lstm/PartitionedCall/while/enter/_155", "op": "Enter", "input": ["StatefulPartitionedCall/model/bidirectional/forward_lstm/PartitionedCall/time"], "attr": {"parallel_iterations": {"i": "32"}, "T": {"type": "DT_INT32"}, "frame_name": {"s": "U3RhdGVmdWxQYXJ0aXRpb25lZENhbGwvbW9kZWwvYmlkaXJlY3Rpb25hbC9mb3J3YXJkX2xzdG0vUGFydGl0aW9uZWRDYWxsL3doaWxl"}, "is_constant": {"b": false}}}, {"name": "StatefulPartitionedCall/model/bidirectional/forward_lstm/PartitionedCall/while/enter/_153", "op": "Enter", "input": ["StatefulPartitionedCall/model/bidirectional/forward_lstm/PartitionedCall/while/loop_counter"], "attr": {"parallel_iterations": {"i": "32"}, "frame_name": {"s": "U3RhdGVmdWxQYXJ0aXRpb25lZENhbGwvbW9kZWwvYmlkaXJlY3Rpb25hbC9mb3J3YXJkX2xzdG0vUGFydGl0aW9uZWRDYWxsL3doaWxl"}, "T": {"type": "DT_INT32"}, "is_constant": {"b": false}}}, {"name": "StatefulPartitionedCall/model/bidirectional/backward_lstm/PartitionedCall/while/enter/_221", "op": "Enter", "input": ["StatefulPartitionedCall/model/bidirectional/backward_lstm/Read/ReadVariableOp"], "attr": {"T": {"type": "DT_FLOAT"}, "frame_name": {"s": "U3RhdGVmdWxQYXJ0aXRpb25lZENhbGwvbW9kZWwvYmlkaXJlY3Rpb25hbC9iYWNrd2FyZF9sc3RtL1BhcnRpdGlvbmVkQ2FsbC93aGlsZQ=="}, "is_constant": {"b": false}, "parallel_iterations": {"i": "32"}}}, {"name": "StatefulPartitionedCall/model/bidirectional/backward_lstm/PartitionedCall/while/enter/_222", "op": "Enter", "input": ["StatefulPartitionedCall/model/bidirectional/backward_lstm/Read_1/ReadVariableOp"], "attr": {"frame_name": {"s": "U3RhdGVmdWxQYXJ0aXRpb25lZENhbGwvbW9kZWwvYmlkaXJlY3Rpb25hbC9iYWNrd2FyZF9sc3RtL1BhcnRpdGlvbmVkQ2FsbC93aGlsZQ=="}, "T": {"type": "DT_FLOAT"}, "parallel_iterations": {"i": "32"}, "is_constant": {"b": false}}}, {"name": "StatefulPartitionedCall/model/bidirectional/backward_lstm/PartitionedCall/while/enter/_223", "op": "Enter", "input": ["StatefulPartitionedCall/model/bidirectional/backward_lstm/Read_2/ReadVariableOp"], "attr": {"parallel_iterations": {"i": "32"}, "is_constant": {"b": false}, "frame_name": {"s": "U3RhdGVmdWxQYXJ0aXRpb25lZENhbGwvbW9kZWwvYmlkaXJlY3Rpb25hbC9iYWNrd2FyZF9sc3RtL1BhcnRpdGlvbmVkQ2FsbC93aGlsZQ=="}, "T": {"type": "DT_FLOAT"}}}, {"name": "StatefulPartitionedCall/model/bidirectional/backward_lstm/PartitionedCall/while/enter/_215", "op": "Enter", "input": ["StatefulPartitionedCall/model/bidirectional/backward_lstm/PartitionedCall/time"], "attr": {"T": {"type": "DT_INT32"}, "parallel_iterations": {"i": "32"}, "frame_name": {"s": "U3RhdGVmdWxQYXJ0aXRpb25lZENhbGwvbW9kZWwvYmlkaXJlY3Rpb25hbC9iYWNrd2FyZF9sc3RtL1BhcnRpdGlvbmVkQ2FsbC93aGlsZQ=="}, "is_constant": {"b": false}}}, {"name": "StatefulPartitionedCall/model/bidirectional/backward_lstm/PartitionedCall/while/enter/_213", "op": "Enter", "input": ["StatefulPartitionedCall/model/bidirectional/backward_lstm/PartitionedCall/while/loop_counter"], "attr": {"frame_name": {"s": "U3RhdGVmdWxQYXJ0aXRpb25lZENhbGwvbW9kZWwvYmlkaXJlY3Rpb25hbC9iYWNrd2FyZF9sc3RtL1BhcnRpdGlvbmVkQ2FsbC93aGlsZQ=="}, "is_constant": {"b": false}, "parallel_iterations": {"i": "32"}, "T": {"type": "DT_INT32"}}}, {"name": "StatefulPartitionedCall/model/lambda/truediv", "op": "Mul", "input": ["input", "ConstantFolding/StatefulPartitionedCall/model/lambda/truediv_recip"], "attr": {"T": {"type": "DT_FLOAT"}}}, {"name": "StatefulPartitionedCall/model/bidirectional/forward_lstm/PartitionedCall/while/merge/_172", "op": "Merge", "input": ["StatefulPartitionedCall/model/bidirectional/forward_lstm/PartitionedCall/while/enter/_161", "StatefulPartitionedCall/model/bidirectional/forward_lstm/PartitionedCall/while/next_iteration/_208"], "attr": {"T": {"type": "DT_FLOAT"}, "N": {"i": "2"}}}, {"name": "StatefulPartitionedCall/model/bidirectional/forward_lstm/PartitionedCall/while/merge/_173", "op": "Merge", "input": ["StatefulPartitionedCall/model/bidirectional/forward_lstm/PartitionedCall/while/enter/_162", "StatefulPartitionedCall/model/bidirectional/forward_lstm/PartitionedCall/while/next_iteration/_209"], "attr": {"N": {"i": "2"}, "T": {"type": "DT_FLOAT"}}}, {"name": "StatefulPartitionedCall/model/bidirectional/forward_lstm/PartitionedCall/while/merge/_174", "op": "Merge", "input": ["StatefulPartitionedCall/model/bidirectional/forward_lstm/PartitionedCall/while/enter/_163", "StatefulPartitionedCall/model/bidirectional/forward_lstm/PartitionedCall/while/next_iteration/_210"], "attr": {"N": {"i": "2"}, "T": {"type": "DT_FLOAT"}}}, {"name": "StatefulPartitionedCall/model/bidirectional/forward_lstm/PartitionedCall/while/merge/_166", "op": "Merge", "input": ["StatefulPartitionedCall/model/bidirectional/forward_lstm/PartitionedCall/while/enter/_155", "StatefulPartitionedCall/model/bidirectional/forward_lstm/PartitionedCall/while/next_iteration/_202"], "attr": {"N": {"i": "2"}, "T": {"type": "DT_INT32"}}}, {"name": "StatefulPartitionedCall/model/bidirectional/forward_lstm/PartitionedCall/while/merge/_164", "op": "Merge", "input": ["StatefulPartitionedCall/model/bidirectional/forward_lstm/PartitionedCall/while/enter/_153", "StatefulPartitionedCall/model/bidirectional/forward_lstm/PartitionedCall/while/next_iteration/_200"], "attr": {"N": {"i": "2"}, "_has_manual_control_dependencies": {"b": true}, "T": {"type": "DT_INT32"}}}, {"name": "StatefulPartitionedCall/model/bidirectional/backward_lstm/PartitionedCall/while/merge/_232", "op": "Merge", "input": ["StatefulPartitionedCall/model/bidirectional/backward_lstm/PartitionedCall/while/enter/_221", "StatefulPartitionedCall/model/bidirectional/backward_lstm/PartitionedCall/while/next_iteration/_268"], "attr": {"N": {"i": "2"}, "T": {"type": "DT_FLOAT"}}}, {"name": "StatefulPartitionedCall/model/bidirectional/backward_lstm/PartitionedCall/while/merge/_233", "op": "Merge", "input": ["StatefulPartitionedCall/model/bidirectional/backward_lstm/PartitionedCall/while/enter/_222", "StatefulPartitionedCall/model/bidirectional/backward_lstm/PartitionedCall/while/next_iteration/_269"], "attr": {"T": {"type": "DT_FLOAT"}, "N": {"i": "2"}}}, {"name": "StatefulPartitionedCall/model/bidirectional/backward_lstm/PartitionedCall/while/merge/_234", "op": "Merge", "input": ["StatefulPartitionedCall/model/bidirectional/backward_lstm/PartitionedCall/while/enter/_223", "StatefulPartitionedCall/model/bidirectional/backward_lstm/PartitionedCall/while/next_iteration/_270"], "attr": {"T": {"type": "DT_FLOAT"}, "N": {"i": "2"}}}, {"name": "StatefulPartitionedCall/model/bidirectional/backward_lstm/PartitionedCall/while/merge/_226", "op": "Merge", "input": ["StatefulPartitionedCall/model/bidirectional/backward_lstm/PartitionedCall/while/enter/_215", "StatefulPartitionedCall/model/bidirectional/backward_lstm/PartitionedCall/while/next_iteration/_262"], "attr": {"T": {"type": "DT_INT32"}, "N": {"i": "2"}}}, {"name": "StatefulPartitionedCall/model/bidirectional/backward_lstm/PartitionedCall/while/merge/_224", "op": "Merge", "input": ["StatefulPartitionedCall/model/bidirectional/backward_lstm/PartitionedCall/while/enter/_213", "StatefulPartitionedCall/model/bidirectional/backward_lstm/PartitionedCall/while/next_iteration/_260"], "attr": {"_has_manual_control_dependencies": {"b": true}, "T": {"type": "DT_INT32"}, "N": {"i": "2"}}}, {"name": "StatefulPartitionedCall/model/conv2d_2/BiasAdd", "op": "_FusedConv2D", "input": ["StatefulPartitionedCall/model/lambda/truediv", "StatefulPartitionedCall/model/conv2d_2/Conv2D/ReadVariableOp", "StatefulPartitionedCall/model/conv2d_2/BiasAdd/ReadVariableOp"], "device": "/device:CPU:0", "attr": {"use_cudnn_on_gpu": {"b": true}, "dilations": {"list": {"i": ["1", "1", "1", "1"]}}, "num_args": {"i": "1"}, "fused_ops": {"list": {"s": ["Qmlhc0FkZA=="]}}, "leakyrelu_alpha": {"f": 0.2}, "data_format": {"s": "TkhXQw=="}, "filter_format": {"s": "SFdJTw=="}, "TArgs": {"list": {"type": ["DT_FLOAT"]}}, "padding": {"s": "U0FNRQ=="}, "epsilon": {"f": 0.0}, "T": {"type": "DT_FLOAT"}, "num_host_args": {"i": "0"}, "explicit_paddings": {"list": {}}, "strides": {"list": {"i": ["1", "1", "1", "1"]}}}}, {"name": "StatefulPartitionedCall/model/leaky_re_lu/LeakyRelu", "op": "_FusedConv2D", "input": ["StatefulPartitionedCall/model/lambda/truediv", "StatefulPartitionedCall/model/conv2d/Conv2D_weights", "StatefulPartitionedCall/model/conv2d/Conv2D_bn_offset"], "device": "/device:CPU:0", "attr": {"padding": {"s": "U0FNRQ=="}, "dilations": {"list": {"i": ["1", "1", "1", "1"]}}, "strides": {"list": {"i": ["1", "1", "1", "1"]}}, "data_format": {"s": "TkhXQw=="}, "filter_format": {"s": "SFdJTw=="}, "TArgs": {"list": {"type": ["DT_FLOAT"]}}, "num_host_args": {"i": "0"}, "fused_ops": {"list": {"s": ["Qmlhc0FkZA==", "TGVha3lSZWx1"]}}, "T": {"type": "DT_FLOAT"}, "use_cudnn_on_gpu": {"b": true}, "explicit_paddings": {"list": {}}, "leakyrelu_alpha": {"f": 0.1}, "num_args": {"i": "1"}, "epsilon": {"f": 0.0}}}, {"name": "StatefulPartitionedCall/model/batch_normalization_1/FusedBatchNormV3", "op": "_FusedConv2D", "input": ["StatefulPartitionedCall/model/leaky_re_lu/LeakyRelu", "StatefulPartitionedCall/model/conv2d_1/Conv2D_weights", "StatefulPartitionedCall/model/conv2d_1/Conv2D_bn_offset"], "device": "/device:CPU:0", "attr": {"padding": {"s": "U0FNRQ=="}, "use_cudnn_on_gpu": {"b": true}, "data_format": {"s": "TkhXQw=="}, "TArgs": {"list": {"type": ["DT_FLOAT"]}}, "fused_ops": {"list": {"s": ["Qmlhc0FkZA=="]}}, "filter_format": {"s": "SFdJTw=="}, "T": {"type": "DT_FLOAT"}, "num_args": {"i": "1"}, "strides": {"list": {"i": ["1", "1", "1", "1"]}}, "dilations": {"list": {"i": ["1", "1", "1", "1"]}}, "num_host_args": {"i": "0"}, "epsilon": {"f": 0.0}, "explicit_paddings": {"list": {}}, "leakyrelu_alpha": {"f": 0.2}}}, {"name": "StatefulPartitionedCall/model/add/add", "op": "AddV2", "input": ["StatefulPartitionedCall/model/batch_normalization_1/FusedBatchNormV3", "StatefulPartitionedCall/model/conv2d_2/BiasAdd"], "attr": {"T": {"type": "DT_FLOAT"}}}, {"name": "StatefulPartitionedCall/model/leaky_re_lu_1/LeakyRelu", "op": "LeakyRelu", "input": ["StatefulPartitionedCall/model/add/add"], "attr": {"alpha": {"f": 0.1}, "T": {"type": "DT_FLOAT"}}}, {"name": "StatefulPartitionedCall/model/conv2d_5/BiasAdd", "op": "_FusedConv2D", "input": ["StatefulPartitionedCall/model/leaky_re_lu_1/LeakyRelu", "StatefulPartitionedCall/model/conv2d_5/Conv2D/ReadVariableOp", "StatefulPartitionedCall/model/conv2d_5/BiasAdd/ReadVariableOp"], "device": "/device:CPU:0", "attr": {"padding": {"s": "U0FNRQ=="}, "T": {"type": "DT_FLOAT"}, "num_host_args": {"i": "0"}, "num_args": {"i": "1"}, "strides": {"list": {"i": ["1", "2", "2", "1"]}}, "leakyrelu_alpha": {"f": 0.2}, "explicit_paddings": {"list": {}}, "filter_format": {"s": "SFdJTw=="}, "epsilon": {"f": 0.0}, "fused_ops": {"list": {"s": ["Qmlhc0FkZA=="]}}, "data_format": {"s": "TkhXQw=="}, "dilations": {"list": {"i": ["1", "1", "1", "1"]}}, "TArgs": {"list": {"type": ["DT_FLOAT"]}}, "use_cudnn_on_gpu": {"b": true}}}, {"name": "StatefulPartitionedCall/model/leaky_re_lu_2/LeakyRelu", "op": "_FusedConv2D", "input": ["StatefulPartitionedCall/model/leaky_re_lu_1/LeakyRelu", "StatefulPartitionedCall/model/conv2d_3/Conv2D_weights", "StatefulPartitionedCall/model/conv2d_3/Conv2D_bn_offset"], "device": "/device:CPU:0", "attr": {"padding": {"s": "U0FNRQ=="}, "explicit_paddings": {"list": {}}, "filter_format": {"s": "SFdJTw=="}, "num_args": {"i": "1"}, "epsilon": {"f": 0.0}, "dilations": {"list": {"i": ["1", "1", "1", "1"]}}, "fused_ops": {"list": {"s": ["Qmlhc0FkZA==", "TGVha3lSZWx1"]}}, "leakyrelu_alpha": {"f": 0.1}, "num_host_args": {"i": "0"}, "strides": {"list": {"i": ["1", "2", "2", "1"]}}, "TArgs": {"list": {"type": ["DT_FLOAT"]}}, "data_format": {"s": "TkhXQw=="}, "T": {"type": "DT_FLOAT"}, "use_cudnn_on_gpu": {"b": true}}}, {"name": "StatefulPartitionedCall/model/batch_normalization_3/FusedBatchNormV3", "op": "_FusedConv2D", "input": ["StatefulPartitionedCall/model/leaky_re_lu_2/LeakyRelu", "StatefulPartitionedCall/model/conv2d_4/Conv2D_weights", "StatefulPartitionedCall/model/conv2d_4/Conv2D_bn_offset"], "device": "/device:CPU:0", "attr": {"num_host_args": {"i": "0"}, "TArgs": {"list": {"type": ["DT_FLOAT"]}}, "num_args": {"i": "1"}, "padding": {"s": "U0FNRQ=="}, "dilations": {"list": {"i": ["1", "1", "1", "1"]}}, "use_cudnn_on_gpu": {"b": true}, "fused_ops": {"list": {"s": ["Qmlhc0FkZA=="]}}, "data_format": {"s": "TkhXQw=="}, "explicit_paddings": {"list": {}}, "filter_format": {"s": "SFdJTw=="}, "T": {"type": "DT_FLOAT"}, "strides": {"list": {"i": ["1", "1", "1", "1"]}}, "leakyrelu_alpha": {"f": 0.2}, "epsilon": {"f": 0.0}}}, {"name": "StatefulPartitionedCall/model/add_1/add", "op": "AddV2", "input": ["StatefulPartitionedCall/model/batch_normalization_3/FusedBatchNormV3", "StatefulPartitionedCall/model/conv2d_5/BiasAdd"], "attr": {"T": {"type": "DT_FLOAT"}}}, {"name": "StatefulPartitionedCall/model/leaky_re_lu_3/LeakyRelu", "op": "LeakyRelu", "input": ["StatefulPartitionedCall/model/add_1/add"], "attr": {"T": {"type": "DT_FLOAT"}, "alpha": {"f": 0.1}}}, {"name": "StatefulPartitionedCall/model/leaky_re_lu_4/LeakyRelu", "op": "_FusedConv2D", "input": ["StatefulPartitionedCall/model/leaky_re_lu_3/LeakyRelu", "StatefulPartitionedCall/model/conv2d_6/Conv2D_weights", "StatefulPartitionedCall/model/conv2d_6/Conv2D_bn_offset"], "device": "/device:CPU:0", "attr": {"dilations": {"list": {"i": ["1", "1", "1", "1"]}}, "fused_ops": {"list": {"s": ["Qmlhc0FkZA==", "TGVha3lSZWx1"]}}, "use_cudnn_on_gpu": {"b": true}, "leakyrelu_alpha": {"f": 0.1}, "explicit_paddings": {"list": {}}, "num_args": {"i": "1"}, "num_host_args": {"i": "0"}, "TArgs": {"list": {"type": ["DT_FLOAT"]}}, "filter_format": {"s": "SFdJTw=="}, "padding": {"s": "U0FNRQ=="}, "data_format": {"s": "TkhXQw=="}, "epsilon": {"f": 0.0}, "strides": {"list": {"i": ["1", "1", "1", "1"]}}, "T": {"type": "DT_FLOAT"}}}, {"name": "StatefulPartitionedCall/model/batch_normalization_5/FusedBatchNormV3", "op": "_FusedConv2D", "input": ["StatefulPartitionedCall/model/leaky_re_lu_4/LeakyRelu", "StatefulPartitionedCall/model/conv2d_7/Conv2D_weights", "StatefulPartitionedCall/model/conv2d_7/Conv2D_bn_offset"], "device": "/device:CPU:0", "attr": {"epsilon": {"f": 0.0}, "padding": {"s": "U0FNRQ=="}, "TArgs": {"list": {"type": ["DT_FLOAT"]}}, "T": {"type": "DT_FLOAT"}, "leakyrelu_alpha": {"f": 0.2}, "data_format": {"s": "TkhXQw=="}, "filter_format": {"s": "SFdJTw=="}, "num_host_args": {"i": "0"}, "use_cudnn_on_gpu": {"b": true}, "strides": {"list": {"i": ["1", "1", "1", "1"]}}, "num_args": {"i": "1"}, "explicit_paddings": {"list": {}}, "fused_ops": {"list": {"s": ["Qmlhc0FkZA=="]}}, "dilations": {"list": {"i": ["1", "1", "1", "1"]}}}}, {"name": "StatefulPartitionedCall/model/add_2/add", "op": "AddV2", "input": ["StatefulPartitionedCall/model/batch_normalization_5/FusedBatchNormV3", "StatefulPartitionedCall/model/leaky_re_lu_3/LeakyRelu"], "attr": {"T": {"type": "DT_FLOAT"}}}, {"name": "StatefulPartitionedCall/model/leaky_re_lu_5/LeakyRelu", "op": "LeakyRelu", "input": ["StatefulPartitionedCall/model/add_2/add"], "attr": {"alpha": {"f": 0.1}, "T": {"type": "DT_FLOAT"}}}, {"name": "StatefulPartitionedCall/model/conv2d_10/BiasAdd", "op": "_FusedConv2D", "input": ["StatefulPartitionedCall/model/leaky_re_lu_5/LeakyRelu", "StatefulPartitionedCall/model/conv2d_10/Conv2D/ReadVariableOp", "StatefulPartitionedCall/model/conv2d_10/BiasAdd/ReadVariableOp"], "device": "/device:CPU:0", "attr": {"T": {"type": "DT_FLOAT"}, "padding": {"s": "U0FNRQ=="}, "dilations": {"list": {"i": ["1", "1", "1", "1"]}}, "use_cudnn_on_gpu": {"b": true}, "fused_ops": {"list": {"s": ["Qmlhc0FkZA=="]}}, "filter_format": {"s": "SFdJTw=="}, "epsilon": {"f": 0.0}, "leakyrelu_alpha": {"f": 0.2}, "strides": {"list": {"i": ["1", "2", "2", "1"]}}, "data_format": {"s": "TkhXQw=="}, "TArgs": {"list": {"type": ["DT_FLOAT"]}}, "num_args": {"i": "1"}, "explicit_paddings": {"list": {}}, "num_host_args": {"i": "0"}}}, {"name": "StatefulPartitionedCall/model/leaky_re_lu_6/LeakyRelu", "op": "_FusedConv2D", "input": ["StatefulPartitionedCall/model/leaky_re_lu_5/LeakyRelu", "StatefulPartitionedCall/model/conv2d_8/Conv2D_weights", "StatefulPartitionedCall/model/conv2d_8/Conv2D_bn_offset"], "device": "/device:CPU:0", "attr": {"fused_ops": {"list": {"s": ["Qmlhc0FkZA==", "TGVha3lSZWx1"]}}, "padding": {"s": "U0FNRQ=="}, "dilations": {"list": {"i": ["1", "1", "1", "1"]}}, "filter_format": {"s": "SFdJTw=="}, "strides": {"list": {"i": ["1", "2", "2", "1"]}}, "leakyrelu_alpha": {"f": 0.1}, "num_args": {"i": "1"}, "epsilon": {"f": 0.0}, "use_cudnn_on_gpu": {"b": true}, "explicit_paddings": {"list": {}}, "num_host_args": {"i": "0"}, "data_format": {"s": "TkhXQw=="}, "T": {"type": "DT_FLOAT"}, "TArgs": {"list": {"type": ["DT_FLOAT"]}}}}, {"name": "StatefulPartitionedCall/model/batch_normalization_7/FusedBatchNormV3", "op": "_FusedConv2D", "input": ["StatefulPartitionedCall/model/leaky_re_lu_6/LeakyRelu", "StatefulPartitionedCall/model/conv2d_9/Conv2D_weights", "StatefulPartitionedCall/model/conv2d_9/Conv2D_bn_offset"], "device": "/device:CPU:0", "attr": {"explicit_paddings": {"list": {}}, "filter_format": {"s": "SFdJTw=="}, "use_cudnn_on_gpu": {"b": true}, "padding": {"s": "U0FNRQ=="}, "T": {"type": "DT_FLOAT"}, "strides": {"list": {"i": ["1", "1", "1", "1"]}}, "data_format": {"s": "TkhXQw=="}, "num_args": {"i": "1"}, "dilations": {"list": {"i": ["1", "1", "1", "1"]}}, "leakyrelu_alpha": {"f": 0.2}, "epsilon": {"f": 0.0}, "TArgs": {"list": {"type": ["DT_FLOAT"]}}, "fused_ops": {"list": {"s": ["Qmlhc0FkZA=="]}}, "num_host_args": {"i": "0"}}}, {"name": "StatefulPartitionedCall/model/add_3/add", "op": "AddV2", "input": ["StatefulPartitionedCall/model/batch_normalization_7/FusedBatchNormV3", "StatefulPartitionedCall/model/conv2d_10/BiasAdd"], "attr": {"T": {"type": "DT_FLOAT"}}}, {"name": "StatefulPartitionedCall/model/leaky_re_lu_7/LeakyRelu", "op": "LeakyRelu", "input": ["StatefulPartitionedCall/model/add_3/add"], "attr": {"alpha": {"f": 0.1}, "T": {"type": "DT_FLOAT"}}}, {"name": "StatefulPartitionedCall/model/leaky_re_lu_8/LeakyRelu", "op": "_FusedConv2D", "input": ["StatefulPartitionedCall/model/leaky_re_lu_7/LeakyRelu", "StatefulPartitionedCall/model/conv2d_11/Conv2D_weights", "StatefulPartitionedCall/model/conv2d_11/Conv2D_bn_offset"], "device": "/device:CPU:0", "attr": {"epsilon": {"f": 0.0}, "padding": {"s": "U0FNRQ=="}, "explicit_paddings": {"list": {}}, "leakyrelu_alpha": {"f": 0.1}, "fused_ops": {"list": {"s": ["Qmlhc0FkZA==", "TGVha3lSZWx1"]}}, "T": {"type": "DT_FLOAT"}, "dilations": {"list": {"i": ["1", "1", "1", "1"]}}, "data_format": {"s": "TkhXQw=="}, "TArgs": {"list": {"type": ["DT_FLOAT"]}}, "num_host_args": {"i": "0"}, "use_cudnn_on_gpu": {"b": true}, "filter_format": {"s": "SFdJTw=="}, "strides": {"list": {"i": ["1", "1", "1", "1"]}}, "num_args": {"i": "1"}}}, {"name": "StatefulPartitionedCall/model/batch_normalization_9/FusedBatchNormV3", "op": "_FusedConv2D", "input": ["StatefulPartitionedCall/model/leaky_re_lu_8/LeakyRelu", "StatefulPartitionedCall/model/conv2d_12/Conv2D_weights", "StatefulPartitionedCall/model/conv2d_12/Conv2D_bn_offset"], "device": "/device:CPU:0", "attr": {"TArgs": {"list": {"type": ["DT_FLOAT"]}}, "fused_ops": {"list": {"s": ["Qmlhc0FkZA=="]}}, "filter_format": {"s": "SFdJTw=="}, "num_host_args": {"i": "0"}, "padding": {"s": "U0FNRQ=="}, "T": {"type": "DT_FLOAT"}, "epsilon": {"f": 0.0}, "strides": {"list": {"i": ["1", "1", "1", "1"]}}, "data_format": {"s": "TkhXQw=="}, "explicit_paddings": {"list": {}}, "dilations": {"list": {"i": ["1", "1", "1", "1"]}}, "leakyrelu_alpha": {"f": 0.2}, "num_args": {"i": "1"}, "use_cudnn_on_gpu": {"b": true}}}, {"name": "StatefulPartitionedCall/model/add_4/add", "op": "AddV2", "input": ["StatefulPartitionedCall/model/batch_normalization_9/FusedBatchNormV3", "StatefulPartitionedCall/model/leaky_re_lu_7/LeakyRelu"], "attr": {"T": {"type": "DT_FLOAT"}}}, {"name": "StatefulPartitionedCall/model/leaky_re_lu_9/LeakyRelu", "op": "LeakyRelu", "input": ["StatefulPartitionedCall/model/add_4/add"], "attr": {"alpha": {"f": 0.1}, "T": {"type": "DT_FLOAT"}}}, {"name": "StatefulPartitionedCall/model/conv2d_15/BiasAdd", "op": "_FusedConv2D", "input": ["StatefulPartitionedCall/model/leaky_re_lu_9/LeakyRelu", "StatefulPartitionedCall/model/conv2d_15/Conv2D/ReadVariableOp", "StatefulPartitionedCall/model/conv2d_15/BiasAdd/ReadVariableOp"], "device": "/device:CPU:0", "attr": {"leakyrelu_alpha": {"f": 0.2}, "fused_ops": {"list": {"s": ["Qmlhc0FkZA=="]}}, "num_args": {"i": "1"}, "T": {"type": "DT_FLOAT"}, "TArgs": {"list": {"type": ["DT_FLOAT"]}}, "padding": {"s": "U0FNRQ=="}, "num_host_args": {"i": "0"}, "epsilon": {"f": 0.0}, "strides": {"list": {"i": ["1", "2", "2", "1"]}}, "explicit_paddings": {"list": {}}, "data_format": {"s": "TkhXQw=="}, "use_cudnn_on_gpu": {"b": true}, "filter_format": {"s": "SFdJTw=="}, "dilations": {"list": {"i": ["1", "1", "1", "1"]}}}}, {"name": "StatefulPartitionedCall/model/leaky_re_lu_10/LeakyRelu", "op": "_FusedConv2D", "input": ["StatefulPartitionedCall/model/leaky_re_lu_9/LeakyRelu", "StatefulPartitionedCall/model/conv2d_13/Conv2D_weights", "StatefulPartitionedCall/model/conv2d_13/Conv2D_bn_offset"], "device": "/device:CPU:0", "attr": {"epsilon": {"f": 0.0}, "leakyrelu_alpha": {"f": 0.1}, "padding": {"s": "U0FNRQ=="}, "data_format": {"s": "TkhXQw=="}, "filter_format": {"s": "SFdJTw=="}, "dilations": {"list": {"i": ["1", "1", "1", "1"]}}, "T": {"type": "DT_FLOAT"}, "use_cudnn_on_gpu": {"b": true}, "num_args": {"i": "1"}, "strides": {"list": {"i": ["1", "2", "2", "1"]}}, "explicit_paddings": {"list": {}}, "num_host_args": {"i": "0"}, "TArgs": {"list": {"type": ["DT_FLOAT"]}}, "fused_ops": {"list": {"s": ["Qmlhc0FkZA==", "TGVha3lSZWx1"]}}}}, {"name": "StatefulPartitionedCall/model/batch_normalization_11/FusedBatchNormV3", "op": "_FusedConv2D", "input": ["StatefulPartitionedCall/model/leaky_re_lu_10/LeakyRelu", "StatefulPartitionedCall/model/conv2d_14/Conv2D_weights", "StatefulPartitionedCall/model/conv2d_14/Conv2D_bn_offset"], "device": "/device:CPU:0", "attr": {"fused_ops": {"list": {"s": ["Qmlhc0FkZA=="]}}, "explicit_paddings": {"list": {}}, "strides": {"list": {"i": ["1", "1", "1", "1"]}}, "dilations": {"list": {"i": ["1", "1", "1", "1"]}}, "num_host_args": {"i": "0"}, "leakyrelu_alpha": {"f": 0.2}, "use_cudnn_on_gpu": {"b": true}, "data_format": {"s": "TkhXQw=="}, "epsilon": {"f": 0.0}, "T": {"type": "DT_FLOAT"}, "filter_format": {"s": "SFdJTw=="}, "TArgs": {"list": {"type": ["DT_FLOAT"]}}, "padding": {"s": "U0FNRQ=="}, "num_args": {"i": "1"}}}, {"name": "StatefulPartitionedCall/model/add_5/add", "op": "AddV2", "input": ["StatefulPartitionedCall/model/batch_normalization_11/FusedBatchNormV3", "StatefulPartitionedCall/model/conv2d_15/BiasAdd"], "attr": {"T": {"type": "DT_FLOAT"}}}, {"name": "StatefulPartitionedCall/model/leaky_re_lu_11/LeakyRelu", "op": "LeakyRelu", "input": ["StatefulPartitionedCall/model/add_5/add"], "attr": {"T": {"type": "DT_FLOAT"}, "alpha": {"f": 0.1}}}, {"name": "StatefulPartitionedCall/model/conv2d_18/BiasAdd", "op": "_FusedConv2D", "input": ["StatefulPartitionedCall/model/leaky_re_lu_11/LeakyRelu", "StatefulPartitionedCall/model/conv2d_18/Conv2D/ReadVariableOp", "StatefulPartitionedCall/model/conv2d_18/BiasAdd/ReadVariableOp"], "device": "/device:CPU:0", "attr": {"TArgs": {"list": {"type": ["DT_FLOAT"]}}, "dilations": {"list": {"i": ["1", "1", "1", "1"]}}, "leakyrelu_alpha": {"f": 0.2}, "explicit_paddings": {"list": {}}, "fused_ops": {"list": {"s": ["Qmlhc0FkZA=="]}}, "num_args": {"i": "1"}, "padding": {"s": "U0FNRQ=="}, "strides": {"list": {"i": ["1", "1", "1", "1"]}}, "filter_format": {"s": "SFdJTw=="}, "use_cudnn_on_gpu": {"b": true}, "data_format": {"s": "TkhXQw=="}, "num_host_args": {"i": "0"}, "epsilon": {"f": 0.0}, "T": {"type": "DT_FLOAT"}}}, {"name": "StatefulPartitionedCall/model/leaky_re_lu_12/LeakyRelu", "op": "_FusedConv2D", "input": ["StatefulPartitionedCall/model/leaky_re_lu_11/LeakyRelu", "StatefulPartitionedCall/model/conv2d_16/Conv2D_weights", "StatefulPartitionedCall/model/conv2d_16/Conv2D_bn_offset"], "device": "/device:CPU:0", "attr": {"leakyrelu_alpha": {"f": 0.1}, "num_host_args": {"i": "0"}, "data_format": {"s": "TkhXQw=="}, "padding": {"s": "U0FNRQ=="}, "fused_ops": {"list": {"s": ["Qmlhc0FkZA==", "TGVha3lSZWx1"]}}, "TArgs": {"list": {"type": ["DT_FLOAT"]}}, "filter_format": {"s": "SFdJTw=="}, "num_args": {"i": "1"}, "explicit_paddings": {"list": {}}, "T": {"type": "DT_FLOAT"}, "epsilon": {"f": 0.0}, "use_cudnn_on_gpu": {"b": true}, "strides": {"list": {"i": ["1", "1", "1", "1"]}}, "dilations": {"list": {"i": ["1", "1", "1", "1"]}}}}, {"name": "StatefulPartitionedCall/model/batch_normalization_13/FusedBatchNormV3", "op": "_FusedConv2D", "input": ["StatefulPartitionedCall/model/leaky_re_lu_12/LeakyRelu", "StatefulPartitionedCall/model/conv2d_17/Conv2D_weights", "StatefulPartitionedCall/model/conv2d_17/Conv2D_bn_offset"], "device": "/device:CPU:0", "attr": {"strides": {"list": {"i": ["1", "1", "1", "1"]}}, "T": {"type": "DT_FLOAT"}, "dilations": {"list": {"i": ["1", "1", "1", "1"]}}, "epsilon": {"f": 0.0}, "explicit_paddings": {"list": {}}, "TArgs": {"list": {"type": ["DT_FLOAT"]}}, "fused_ops": {"list": {"s": ["Qmlhc0FkZA=="]}}, "use_cudnn_on_gpu": {"b": true}, "filter_format": {"s": "SFdJTw=="}, "padding": {"s": "U0FNRQ=="}, "data_format": {"s": "TkhXQw=="}, "num_args": {"i": "1"}, "num_host_args": {"i": "0"}, "leakyrelu_alpha": {"f": 0.2}}}, {"name": "StatefulPartitionedCall/model/add_6/add", "op": "AddV2", "input": ["StatefulPartitionedCall/model/batch_normalization_13/FusedBatchNormV3", "StatefulPartitionedCall/model/conv2d_18/BiasAdd"], "attr": {"T": {"type": "DT_FLOAT"}}}, {"name": "StatefulPartitionedCall/model/leaky_re_lu_13/LeakyRelu", "op": "LeakyRelu", "input": ["StatefulPartitionedCall/model/add_6/add"], "attr": {"T": {"type": "DT_FLOAT"}, "alpha": {"f": 0.1}}}, {"name": "StatefulPartitionedCall/model/leaky_re_lu_14/LeakyRelu", "op": "_FusedConv2D", "input": ["StatefulPartitionedCall/model/leaky_re_lu_13/LeakyRelu", "StatefulPartitionedCall/model/conv2d_19/Conv2D_weights", "StatefulPartitionedCall/model/conv2d_19/Conv2D_bn_offset"], "device": "/device:CPU:0", "attr": {"fused_ops": {"list": {"s": ["Qmlhc0FkZA==", "TGVha3lSZWx1"]}}, "leakyrelu_alpha": {"f": 0.1}, "num_host_args": {"i": "0"}, "filter_format": {"s": "SFdJTw=="}, "strides": {"list": {"i": ["1", "1", "1", "1"]}}, "use_cudnn_on_gpu": {"b": true}, "padding": {"s": "U0FNRQ=="}, "dilations": {"list": {"i": ["1", "1", "1", "1"]}}, "num_args": {"i": "1"}, "explicit_paddings": {"list": {}}, "data_format": {"s": "TkhXQw=="}, "T": {"type": "DT_FLOAT"}, "TArgs": {"list": {"type": ["DT_FLOAT"]}}, "epsilon": {"f": 0.0}}}, {"name": "StatefulPartitionedCall/model/batch_normalization_15/FusedBatchNormV3", "op": "_FusedConv2D", "input": ["StatefulPartitionedCall/model/leaky_re_lu_14/LeakyRelu", "StatefulPartitionedCall/model/conv2d_20/Conv2D_weights", "StatefulPartitionedCall/model/conv2d_20/Conv2D_bn_offset"], "device": "/device:CPU:0", "attr": {"padding": {"s": "U0FNRQ=="}, "fused_ops": {"list": {"s": ["Qmlhc0FkZA=="]}}, "epsilon": {"f": 0.0}, "T": {"type": "DT_FLOAT"}, "TArgs": {"list": {"type": ["DT_FLOAT"]}}, "explicit_paddings": {"list": {}}, "num_host_args": {"i": "0"}, "num_args": {"i": "1"}, "dilations": {"list": {"i": ["1", "1", "1", "1"]}}, "use_cudnn_on_gpu": {"b": true}, "strides": {"list": {"i": ["1", "1", "1", "1"]}}, "data_format": {"s": "TkhXQw=="}, "leakyrelu_alpha": {"f": 0.2}, "filter_format": {"s": "SFdJTw=="}}}, {"name": "StatefulPartitionedCall/model/add_7/add", "op": "AddV2", "input": ["StatefulPartitionedCall/model/batch_normalization_15/FusedBatchNormV3", "StatefulPartitionedCall/model/leaky_re_lu_13/LeakyRelu"], "attr": {"T": {"type": "DT_FLOAT"}}}, {"name": "StatefulPartitionedCall/model/leaky_re_lu_15/LeakyRelu", "op": "LeakyRelu", "input": ["StatefulPartitionedCall/model/add_7/add"], "attr": {"T": {"type": "DT_FLOAT"}, "alpha": {"f": 0.1}}}, {"name": "StatefulPartitionedCall/model/leaky_re_lu_16/LeakyRelu", "op": "_FusedConv2D", "input": ["StatefulPartitionedCall/model/leaky_re_lu_15/LeakyRelu", "StatefulPartitionedCall/model/conv2d_21/Conv2D_weights", "StatefulPartitionedCall/model/conv2d_21/Conv2D_bn_offset"], "device": "/device:CPU:0", "attr": {"explicit_paddings": {"list": {}}, "TArgs": {"list": {"type": ["DT_FLOAT"]}}, "fused_ops": {"list": {"s": ["Qmlhc0FkZA==", "TGVha3lSZWx1"]}}, "epsilon": {"f": 0.0}, "strides": {"list": {"i": ["1", "1", "1", "1"]}}, "data_format": {"s": "TkhXQw=="}, "use_cudnn_on_gpu": {"b": true}, "filter_format": {"s": "SFdJTw=="}, "num_args": {"i": "1"}, "dilations": {"list": {"i": ["1", "1", "1", "1"]}}, "padding": {"s": "U0FNRQ=="}, "T": {"type": "DT_FLOAT"}, "leakyrelu_alpha": {"f": 0.1}, "num_host_args": {"i": "0"}}}, {"name": "StatefulPartitionedCall/model/batch_normalization_17/FusedBatchNormV3", "op": "_FusedConv2D", "input": ["StatefulPartitionedCall/model/leaky_re_lu_16/LeakyRelu", "StatefulPartitionedCall/model/conv2d_22/Conv2D_weights", "StatefulPartitionedCall/model/conv2d_22/Conv2D_bn_offset"], "device": "/device:CPU:0", "attr": {"filter_format": {"s": "SFdJTw=="}, "fused_ops": {"list": {"s": ["Qmlhc0FkZA=="]}}, "num_host_args": {"i": "0"}, "explicit_paddings": {"list": {}}, "epsilon": {"f": 0.0}, "num_args": {"i": "1"}, "T": {"type": "DT_FLOAT"}, "use_cudnn_on_gpu": {"b": true}, "TArgs": {"list": {"type": ["DT_FLOAT"]}}, "dilations": {"list": {"i": ["1", "1", "1", "1"]}}, "leakyrelu_alpha": {"f": 0.2}, "padding": {"s": "U0FNRQ=="}, "strides": {"list": {"i": ["1", "1", "1", "1"]}}, "data_format": {"s": "TkhXQw=="}}}, {"name": "StatefulPartitionedCall/model/add_8/add", "op": "AddV2", "input": ["StatefulPartitionedCall/model/batch_normalization_17/FusedBatchNormV3", "StatefulPartitionedCall/model/leaky_re_lu_15/LeakyRelu"], "attr": {"T": {"type": "DT_FLOAT"}}}, {"name": "StatefulPartitionedCall/model/leaky_re_lu_17/LeakyRelu", "op": "LeakyRelu", "input": ["StatefulPartitionedCall/model/add_8/add"], "attr": {"alpha": {"f": 0.1}, "T": {"type": "DT_FLOAT"}}}, {"name": "StatefulPartitionedCall/model/reshape/Shape", "op": "Shape", "input": ["StatefulPartitionedCall/model/leaky_re_lu_17/LeakyRelu"], "attr": {"out_type": {"type": "DT_INT32"}, "T": {"type": "DT_FLOAT"}}, "experimentalType": {"typeId": "TFT_PRODUCT", "args": [{"typeId": "TFT_SHAPE_TENSOR", "args": [{"typeId": "TFT_INT32"}]}]}}, {"name": "StatefulPartitionedCall/model/reshape/strided_slice", "op": "StridedSlice", "input": ["StatefulPartitionedCall/model/reshape/Shape", "StatefulPartitionedCall/model/reshape/strided_slice/stack", "StatefulPartitionedCall/model/reshape/strided_slice/stack_1", "StatefulPartitionedCall/model/reshape/strided_slice/stack_2"], "attr": {"end_mask": {"i": "0"}, "Index": {"type": "DT_INT32"}, "begin_mask": {"i": "0"}, "T": {"type": "DT_INT32"}, "ellipsis_mask": {"i": "0"}, "shrink_axis_mask": {"i": "1"}, "new_axis_mask": {"i": "0"}}}, {"name": "StatefulPartitionedCall/model/reshape/Reshape/shape", "op": "Pack", "input": ["StatefulPartitionedCall/model/reshape/strided_slice", "StatefulPartitionedCall/model/reshape/Reshape/shape/1", "StatefulPartitionedCall/model/reshape/Reshape/shape/2"], "attr": {"T": {"type": "DT_INT32"}, "axis": {"i": "0"}, "N": {"i": "3"}}}, {"name": "StatefulPartitionedCall/model/reshape/Reshape", "op": "Reshape", "input": ["StatefulPartitionedCall/model/leaky_re_lu_17/LeakyRelu", "StatefulPartitionedCall/model/reshape/Reshape/shape"], "attr": {"Tshape": {"type": "DT_INT32"}, "T": {"type": "DT_FLOAT"}}}, {"name": "StatefulPartitionedCall/model/bidirectional/forward_lstm/Shape", "op": "Shape", "input": ["StatefulPartitionedCall/model/reshape/Reshape"], "attr": {"out_type": {"type": "DT_INT32"}, "T": {"type": "DT_FLOAT"}}, "experimentalType": {"typeId": "TFT_PRODUCT", "args": [{"typeId": "TFT_SHAPE_TENSOR", "args": [{"typeId": "TFT_INT32"}]}]}}, {"name": "StatefulPartitionedCall/model/bidirectional/forward_lstm/PartitionedCall/transpose", "op": "Transpose", "input": ["StatefulPartitionedCall/model/reshape/Reshape", "StatefulPartitionedCall/model/bidirectional/forward_lstm/PartitionedCall/transpose/perm"], "attr": {"T": {"type": "DT_FLOAT"}, "Tperm": {"type": "DT_INT32"}}}, {"name": "StatefulPartitionedCall/model/bidirectional/backward_lstm/Shape", "op": "Shape", "input": ["StatefulPartitionedCall/model/reshape/Reshape"], "attr": {"out_type": {"type": "DT_INT32"}, "T": {"type": "DT_FLOAT"}}, "experimentalType": {"typeId": "TFT_PRODUCT", "args": [{"typeId": "TFT_SHAPE_TENSOR", "args": [{"typeId": "TFT_INT32"}]}]}}, {"name": "StatefulPartitionedCall/model/bidirectional/backward_lstm/PartitionedCall/transpose", "op": "Transpose", "input": ["StatefulPartitionedCall/model/reshape/Reshape", "StatefulPartitionedCall/model/bidirectional/backward_lstm/PartitionedCall/transpose/perm"], "attr": {"T": {"type": "DT_FLOAT"}, "Tperm": {"type": "DT_INT32"}}}, {"name": "StatefulPartitionedCall/model/bidirectional/forward_lstm/strided_slice", "op": "StridedSlice", "input": ["StatefulPartitionedCall/model/bidirectional/forward_lstm/Shape", "StatefulPartitionedCall/model/bidirectional/forward_lstm/strided_slice/stack", "StatefulPartitionedCall/model/bidirectional/forward_lstm/strided_slice/stack_1", "StatefulPartitionedCall/model/bidirectional/forward_lstm/strided_slice/stack_2"], "attr": {"T": {"type": "DT_INT32"}, "Index": {"type": "DT_INT32"}, "begin_mask": {"i": "0"}, "shrink_axis_mask": {"i": "1"}, "new_axis_mask": {"i": "0"}, "ellipsis_mask": {"i": "0"}, "end_mask": {"i": "0"}}}, {"name": "StatefulPartitionedCall/model/bidirectional/forward_lstm/PartitionedCall/TensorArrayUnstack/TensorListFromTensor", "op": "TensorListFromTensor", "input": ["StatefulPartitionedCall/model/bidirectional/forward_lstm/PartitionedCall/transpose", "StatefulPartitionedCall/model/bidirectional/forward_lstm/PartitionedCall/TensorArrayUnstack/TensorListFromTensor/element_shape"], "attr": {"element_dtype": {"type": "DT_FLOAT"}, "shape_type": {"type": "DT_INT32"}}, "experimentalType": {"typeId": "TFT_PRODUCT", "args": [{"typeId": "TFT_ARRAY", "args": [{"typeId": "TFT_TENSOR", "args": [{"typeId": "TFT_FLOAT"}]}]}]}}, {"name": "StatefulPartitionedCall/model/bidirectional/forward_lstm/PartitionedCall/Shape", "op": "Shape", "input": ["StatefulPartitionedCall/model/bidirectional/forward_lstm/PartitionedCall/transpose"], "attr": {"T": {"type": "DT_FLOAT"}, "out_type": {"type": "DT_INT32"}}, "experimentalType": {"typeId": "TFT_PRODUCT", "args": [{"typeId": "TFT_SHAPE_TENSOR", "args": [{"typeId": "TFT_INT32"}]}]}}, {"name": "StatefulPartitionedCall/model/bidirectional/backward_lstm/strided_slice", "op": "StridedSlice", "input": ["StatefulPartitionedCall/model/bidirectional/backward_lstm/Shape", "StatefulPartitionedCall/model/bidirectional/backward_lstm/strided_slice/stack", "StatefulPartitionedCall/model/bidirectional/backward_lstm/strided_slice/stack_1", "StatefulPartitionedCall/model/bidirectional/backward_lstm/strided_slice/stack_2"], "attr": {"end_mask": {"i": "0"}, "new_axis_mask": {"i": "0"}, "T": {"type": "DT_INT32"}, "Index": {"type": "DT_INT32"}, "shrink_axis_mask": {"i": "1"}, "ellipsis_mask": {"i": "0"}, "begin_mask": {"i": "0"}}}, {"name": "StatefulPartitionedCall/model/bidirectional/backward_lstm/PartitionedCall/ReverseV2", "op": "ReverseV2", "input": ["StatefulPartitionedCall/model/bidirectional/backward_lstm/PartitionedCall/transpose", "StatefulPartitionedCall/model/bidirectional/backward_lstm/PartitionedCall/ReverseV2/axis"], "attr": {"T": {"type": "DT_FLOAT"}, "Tidx": {"type": "DT_INT32"}}}, {"name": "StatefulPartitionedCall/model/bidirectional/backward_lstm/PartitionedCall/Shape", "op": "Shape", "input": ["StatefulPartitionedCall/model/bidirectional/backward_lstm/PartitionedCall/transpose"], "attr": {"out_type": {"type": "DT_INT32"}, "T": {"type": "DT_FLOAT"}}, "experimentalType": {"typeId": "TFT_PRODUCT", "args": [{"typeId": "TFT_SHAPE_TENSOR", "args": [{"typeId": "TFT_INT32"}]}]}}, {"name": "StatefulPartitionedCall/model/bidirectional/forward_lstm/zeros_1/packed", "op": "Pack", "input": ["StatefulPartitionedCall/model/bidirectional/forward_lstm/strided_slice", "StatefulPartitionedCall/model/bidirectional/forward_lstm/zeros_1/packed/1"], "attr": {"N": {"i": "2"}, "T": {"type": "DT_INT32"}, "axis": {"i": "0"}}}, {"name": "StatefulPartitionedCall/model/bidirectional/forward_lstm/zeros/packed", "op": "Pack", "input": ["StatefulPartitionedCall/model/bidirectional/forward_lstm/strided_slice", "StatefulPartitionedCall/model/bidirectional/forward_lstm/zeros/packed/1"], "attr": {"N": {"i": "2"}, "T": {"type": "DT_INT32"}, "axis": {"i": "0"}}}, {"name": "StatefulPartitionedCall/model/bidirectional/forward_lstm/PartitionedCall/while/enter/_160", "op": "Enter", "input": ["StatefulPartitionedCall/model/bidirectional/forward_lstm/PartitionedCall/TensorArrayUnstack/TensorListFromTensor"], "attr": {"is_constant": {"b": false}, "parallel_iterations": {"i": "32"}, "frame_name": {"s": "U3RhdGVmdWxQYXJ0aXRpb25lZENhbGwvbW9kZWwvYmlkaXJlY3Rpb25hbC9mb3J3YXJkX2xzdG0vUGFydGl0aW9uZWRDYWxsL3doaWxl"}, "T": {"type": "DT_VARIANT"}}}, {"name": "StatefulPartitionedCall/model/bidirectional/forward_lstm/PartitionedCall/strided_slice", "op": "StridedSlice", "input": ["StatefulPartitionedCall/model/bidirectional/forward_lstm/PartitionedCall/Shape", "StatefulPartitionedCall/model/bidirectional/forward_lstm/PartitionedCall/strided_slice/stack", "StatefulPartitionedCall/model/bidirectional/forward_lstm/PartitionedCall/strided_slice/stack_1", "StatefulPartitionedCall/model/bidirectional/forward_lstm/PartitionedCall/strided_slice/stack_2"], "attr": {"begin_mask": {"i": "0"}, "T": {"type": "DT_INT32"}, "new_axis_mask": {"i": "0"}, "ellipsis_mask": {"i": "0"}, "end_mask": {"i": "0"}, "shrink_axis_mask": {"i": "1"}, "Index": {"type": "DT_INT32"}}}, {"name": "StatefulPartitionedCall/model/bidirectional/backward_lstm/zeros_1/packed", "op": "Pack", "input": ["StatefulPartitionedCall/model/bidirectional/backward_lstm/strided_slice", "StatefulPartitionedCall/model/bidirectional/backward_lstm/zeros_1/packed/1"], "attr": {"axis": {"i": "0"}, "N": {"i": "2"}, "T": {"type": "DT_INT32"}}}, {"name": "StatefulPartitionedCall/model/bidirectional/backward_lstm/zeros/packed", "op": "Pack", "input": ["StatefulPartitionedCall/model/bidirectional/backward_lstm/strided_slice", "StatefulPartitionedCall/model/bidirectional/backward_lstm/zeros/packed/1"], "attr": {"T": {"type": "DT_INT32"}, "axis": {"i": "0"}, "N": {"i": "2"}}}, {"name": "StatefulPartitionedCall/model/bidirectional/backward_lstm/PartitionedCall/TensorArrayUnstack/TensorListFromTensor", "op": "TensorListFromTensor", "input": ["StatefulPartitionedCall/model/bidirectional/backward_lstm/PartitionedCall/ReverseV2", "StatefulPartitionedCall/model/bidirectional/backward_lstm/PartitionedCall/TensorArrayUnstack/TensorListFromTensor/element_shape"], "attr": {"shape_type": {"type": "DT_INT32"}, "element_dtype": {"type": "DT_FLOAT"}}, "experimentalType": {"typeId": "TFT_PRODUCT", "args": [{"typeId": "TFT_ARRAY", "args": [{"typeId": "TFT_TENSOR", "args": [{"typeId": "TFT_FLOAT"}]}]}]}}, {"name": "StatefulPartitionedCall/model/bidirectional/backward_lstm/PartitionedCall/strided_slice", "op": "StridedSlice", "input": ["StatefulPartitionedCall/model/bidirectional/backward_lstm/PartitionedCall/Shape", "StatefulPartitionedCall/model/bidirectional/backward_lstm/PartitionedCall/strided_slice/stack", "StatefulPartitionedCall/model/bidirectional/backward_lstm/PartitionedCall/strided_slice/stack_1", "StatefulPartitionedCall/model/bidirectional/backward_lstm/PartitionedCall/strided_slice/stack_2"], "attr": {"end_mask": {"i": "0"}, "ellipsis_mask": {"i": "0"}, "new_axis_mask": {"i": "0"}, "begin_mask": {"i": "0"}, "T": {"type": "DT_INT32"}, "shrink_axis_mask": {"i": "1"}, "Index": {"type": "DT_INT32"}}}, {"name": "StatefulPartitionedCall/model/bidirectional/forward_lstm/zeros_1", "op": "Fill", "input": ["StatefulPartitionedCall/model/bidirectional/forward_lstm/zeros_1/packed", "StatefulPartitionedCall/model/bidirectional/forward_lstm/zeros_1/Const"], "attr": {"T": {"type": "DT_FLOAT"}, "index_type": {"type": "DT_INT32"}}}, {"name": "StatefulPartitionedCall/model/bidirectional/forward_lstm/zeros", "op": "Fill", "input": ["StatefulPartitionedCall/model/bidirectional/forward_lstm/zeros/packed", "StatefulPartitionedCall/model/bidirectional/forward_lstm/zeros/Const"], "attr": {"T": {"type": "DT_FLOAT"}, "index_type": {"type": "DT_INT32"}}}, {"name": "StatefulPartitionedCall/model/bidirectional/forward_lstm/PartitionedCall/while/merge/_171", "op": "Merge", "input": ["StatefulPartitionedCall/model/bidirectional/forward_lstm/PartitionedCall/while/enter/_160", "StatefulPartitionedCall/model/bidirectional/forward_lstm/PartitionedCall/while/next_iteration/_207"], "attr": {"T": {"type": "DT_VARIANT"}, "N": {"i": "2"}}}, {"name": "StatefulPartitionedCall/model/bidirectional/forward_lstm/PartitionedCall/TensorArrayV2_1", "op": "TensorListReserve", "input": ["StatefulPartitionedCall/model/bidirectional/forward_lstm/PartitionedCall/TensorArrayV2_1/element_shape", "StatefulPartitionedCall/model/bidirectional/forward_lstm/PartitionedCall/strided_slice"], "attr": {"shape_type": {"type": "DT_INT32"}, "element_dtype": {"type": "DT_FLOAT"}}, "experimentalType": {"typeId": "TFT_PRODUCT", "args": [{"typeId": "TFT_ARRAY", "args": [{"typeId": "TFT_TENSOR", "args": [{"typeId": "TFT_FLOAT"}]}]}]}}, {"name": "StatefulPartitionedCall/model/bidirectional/forward_lstm/PartitionedCall/while/enter/_159", "op": "Enter", "input": ["StatefulPartitionedCall/model/bidirectional/forward_lstm/PartitionedCall/strided_slice"], "attr": {"is_constant": {"b": false}, "frame_name": {"s": "U3RhdGVmdWxQYXJ0aXRpb25lZENhbGwvbW9kZWwvYmlkaXJlY3Rpb25hbC9mb3J3YXJkX2xzdG0vUGFydGl0aW9uZWRDYWxsL3doaWxl"}, "parallel_iterations": {"i": "32"}, "T": {"type": "DT_INT32"}}}, {"name": "StatefulPartitionedCall/model/bidirectional/backward_lstm/zeros_1", "op": "Fill", "input": ["StatefulPartitionedCall/model/bidirectional/backward_lstm/zeros_1/packed", "StatefulPartitionedCall/model/bidirectional/backward_lstm/zeros_1/Const"], "attr": {"T": {"type": "DT_FLOAT"}, "index_type": {"type": "DT_INT32"}}}, {"name": "StatefulPartitionedCall/model/bidirectional/backward_lstm/zeros", "op": "Fill", "input": ["StatefulPartitionedCall/model/bidirectional/backward_lstm/zeros/packed", "StatefulPartitionedCall/model/bidirectional/backward_lstm/zeros/Const"], "attr": {"T": {"type": "DT_FLOAT"}, "index_type": {"type": "DT_INT32"}}}, {"name": "StatefulPartitionedCall/model/bidirectional/backward_lstm/PartitionedCall/while/enter/_220", "op": "Enter", "input": ["StatefulPartitionedCall/model/bidirectional/backward_lstm/PartitionedCall/TensorArrayUnstack/TensorListFromTensor"], "attr": {"is_constant": {"b": false}, "T": {"type": "DT_VARIANT"}, "parallel_iterations": {"i": "32"}, "frame_name": {"s": "U3RhdGVmdWxQYXJ0aXRpb25lZENhbGwvbW9kZWwvYmlkaXJlY3Rpb25hbC9iYWNrd2FyZF9sc3RtL1BhcnRpdGlvbmVkQ2FsbC93aGlsZQ=="}}}, {"name": "StatefulPartitionedCall/model/bidirectional/backward_lstm/PartitionedCall/TensorArrayV2_1", "op": "TensorListReserve", "input": ["StatefulPartitionedCall/model/bidirectional/backward_lstm/PartitionedCall/TensorArrayV2_1/element_shape", "StatefulPartitionedCall/model/bidirectional/backward_lstm/PartitionedCall/strided_slice"], "attr": {"shape_type": {"type": "DT_INT32"}, "element_dtype": {"type": "DT_FLOAT"}}, "experimentalType": {"typeId": "TFT_PRODUCT", "args": [{"typeId": "TFT_ARRAY", "args": [{"typeId": "TFT_TENSOR", "args": [{"typeId": "TFT_FLOAT"}]}]}]}}, {"name": "StatefulPartitionedCall/model/bidirectional/backward_lstm/PartitionedCall/while/enter/_219", "op": "Enter", "input": ["StatefulPartitionedCall/model/bidirectional/backward_lstm/PartitionedCall/strided_slice"], "attr": {"frame_name": {"s": "U3RhdGVmdWxQYXJ0aXRpb25lZENhbGwvbW9kZWwvYmlkaXJlY3Rpb25hbC9iYWNrd2FyZF9sc3RtL1BhcnRpdGlvbmVkQ2FsbC93aGlsZQ=="}, "is_constant": {"b": false}, "parallel_iterations": {"i": "32"}, "T": {"type": "DT_INT32"}}}, {"name": "StatefulPartitionedCall/model/bidirectional/forward_lstm/PartitionedCall/while/enter/_158", "op": "Enter", "input": ["StatefulPartitionedCall/model/bidirectional/forward_lstm/zeros_1"], "attr": {"frame_name": {"s": "U3RhdGVmdWxQYXJ0aXRpb25lZENhbGwvbW9kZWwvYmlkaXJlY3Rpb25hbC9mb3J3YXJkX2xzdG0vUGFydGl0aW9uZWRDYWxsL3doaWxl"}, "parallel_iterations": {"i": "32"}, "T": {"type": "DT_FLOAT"}, "is_constant": {"b": false}}}, {"name": "StatefulPartitionedCall/model/bidirectional/forward_lstm/PartitionedCall/while/enter/_157", "op": "Enter", "input": ["StatefulPartitionedCall/model/bidirectional/forward_lstm/zeros"], "attr": {"T": {"type": "DT_FLOAT"}, "parallel_iterations": {"i": "32"}, "is_constant": {"b": false}, "frame_name": {"s": "U3RhdGVmdWxQYXJ0aXRpb25lZENhbGwvbW9kZWwvYmlkaXJlY3Rpb25hbC9mb3J3YXJkX2xzdG0vUGFydGl0aW9uZWRDYWxsL3doaWxl"}}}, {"name": "StatefulPartitionedCall/model/bidirectional/forward_lstm/PartitionedCall/while/enter/_156", "op": "Enter", "input": ["StatefulPartitionedCall/model/bidirectional/forward_lstm/PartitionedCall/TensorArrayV2_1"], "attr": {"is_constant": {"b": false}, "parallel_iterations": {"i": "32"}, "frame_name": {"s": "U3RhdGVmdWxQYXJ0aXRpb25lZENhbGwvbW9kZWwvYmlkaXJlY3Rpb25hbC9mb3J3YXJkX2xzdG0vUGFydGl0aW9uZWRDYWxsL3doaWxl"}, "T": {"type": "DT_VARIANT"}}}, {"name": "StatefulPartitionedCall/model/bidirectional/forward_lstm/PartitionedCall/while/merge/_170", "op": "Merge", "input": ["StatefulPartitionedCall/model/bidirectional/forward_lstm/PartitionedCall/while/enter/_159", "StatefulPartitionedCall/model/bidirectional/forward_lstm/PartitionedCall/while/next_iteration/_206"], "attr": {"N": {"i": "2"}, "T": {"type": "DT_INT32"}}}, {"name": "StatefulPartitionedCall/model/bidirectional/backward_lstm/PartitionedCall/while/enter/_218", "op": "Enter", "input": ["StatefulPartitionedCall/model/bidirectional/backward_lstm/zeros_1"], "attr": {"frame_name": {"s": "U3RhdGVmdWxQYXJ0aXRpb25lZENhbGwvbW9kZWwvYmlkaXJlY3Rpb25hbC9iYWNrd2FyZF9sc3RtL1BhcnRpdGlvbmVkQ2FsbC93aGlsZQ=="}, "is_constant": {"b": false}, "T": {"type": "DT_FLOAT"}, "parallel_iterations": {"i": "32"}}}, {"name": "StatefulPartitionedCall/model/bidirectional/backward_lstm/PartitionedCall/while/enter/_217", "op": "Enter", "input": ["StatefulPartitionedCall/model/bidirectional/backward_lstm/zeros"], "attr": {"T": {"type": "DT_FLOAT"}, "is_constant": {"b": false}, "frame_name": {"s": "U3RhdGVmdWxQYXJ0aXRpb25lZENhbGwvbW9kZWwvYmlkaXJlY3Rpb25hbC9iYWNrd2FyZF9sc3RtL1BhcnRpdGlvbmVkQ2FsbC93aGlsZQ=="}, "parallel_iterations": {"i": "32"}}}, {"name": "StatefulPartitionedCall/model/bidirectional/backward_lstm/PartitionedCall/while/merge/_231", "op": "Merge", "input": ["StatefulPartitionedCall/model/bidirectional/backward_lstm/PartitionedCall/while/enter/_220", "StatefulPartitionedCall/model/bidirectional/backward_lstm/PartitionedCall/while/next_iteration/_267"], "attr": {"T": {"type": "DT_VARIANT"}, "N": {"i": "2"}}}, {"name": "StatefulPartitionedCall/model/bidirectional/backward_lstm/PartitionedCall/while/enter/_216", "op": "Enter", "input": ["StatefulPartitionedCall/model/bidirectional/backward_lstm/PartitionedCall/TensorArrayV2_1"], "attr": {"frame_name": {"s": "U3RhdGVmdWxQYXJ0aXRpb25lZENhbGwvbW9kZWwvYmlkaXJlY3Rpb25hbC9iYWNrd2FyZF9sc3RtL1BhcnRpdGlvbmVkQ2FsbC93aGlsZQ=="}, "parallel_iterations": {"i": "32"}, "T": {"type": "DT_VARIANT"}, "is_constant": {"b": false}}}, {"name": "StatefulPartitionedCall/model/bidirectional/backward_lstm/PartitionedCall/while/merge/_230", "op": "Merge", "input": ["StatefulPartitionedCall/model/bidirectional/backward_lstm/PartitionedCall/while/enter/_219", "StatefulPartitionedCall/model/bidirectional/backward_lstm/PartitionedCall/while/next_iteration/_266"], "attr": {"T": {"type": "DT_INT32"}, "N": {"i": "2"}}}, {"name": "StatefulPartitionedCall/model/bidirectional/forward_lstm/PartitionedCall/while/merge/_169", "op": "Merge", "input": ["StatefulPartitionedCall/model/bidirectional/forward_lstm/PartitionedCall/while/enter/_158", "StatefulPartitionedCall/model/bidirectional/forward_lstm/PartitionedCall/while/next_iteration/_205"], "attr": {"T": {"type": "DT_FLOAT"}, "N": {"i": "2"}}}, {"name": "StatefulPartitionedCall/model/bidirectional/forward_lstm/PartitionedCall/while/merge/_168", "op": "Merge", "input": ["StatefulPartitionedCall/model/bidirectional/forward_lstm/PartitionedCall/while/enter/_157", "StatefulPartitionedCall/model/bidirectional/forward_lstm/PartitionedCall/while/next_iteration/_204"], "attr": {"T": {"type": "DT_FLOAT"}, "N": {"i": "2"}}}, {"name": "StatefulPartitionedCall/model/bidirectional/forward_lstm/PartitionedCall/while/merge/_167", "op": "Merge", "input": ["StatefulPartitionedCall/model/bidirectional/forward_lstm/PartitionedCall/while/enter/_156", "StatefulPartitionedCall/model/bidirectional/forward_lstm/PartitionedCall/while/next_iteration/_203"], "attr": {"T": {"type": "DT_VARIANT"}, "N": {"i": "2"}}}, {"name": "StatefulPartitionedCall/model/bidirectional/forward_lstm/PartitionedCall/while/cond/_151/while/Less", "op": "Less", "input": ["StatefulPartitionedCall/model/bidirectional/forward_lstm/PartitionedCall/while/merge/_166", "StatefulPartitionedCall/model/bidirectional/forward_lstm/PartitionedCall/while/merge/_170", "^StatefulPartitionedCall/model/bidirectional/forward_lstm/PartitionedCall/while/merge/_164"], "attr": {"T": {"type": "DT_INT32"}}}, {"name": "StatefulPartitionedCall/model/bidirectional/backward_lstm/PartitionedCall/while/merge/_229", "op": "Merge", "input": ["StatefulPartitionedCall/model/bidirectional/backward_lstm/PartitionedCall/while/enter/_218", "StatefulPartitionedCall/model/bidirectional/backward_lstm/PartitionedCall/while/next_iteration/_265"], "attr": {"T": {"type": "DT_FLOAT"}, "N": {"i": "2"}}}, {"name": "StatefulPartitionedCall/model/bidirectional/backward_lstm/PartitionedCall/while/merge/_228", "op": "Merge", "input": ["StatefulPartitionedCall/model/bidirectional/backward_lstm/PartitionedCall/while/enter/_217", "StatefulPartitionedCall/model/bidirectional/backward_lstm/PartitionedCall/while/next_iteration/_264"], "attr": {"T": {"type": "DT_FLOAT"}, "N": {"i": "2"}}}, {"name": "StatefulPartitionedCall/model/bidirectional/backward_lstm/PartitionedCall/while/merge/_227", "op": "Merge", "input": ["StatefulPartitionedCall/model/bidirectional/backward_lstm/PartitionedCall/while/enter/_216", "StatefulPartitionedCall/model/bidirectional/backward_lstm/PartitionedCall/while/next_iteration/_263"], "attr": {"N": {"i": "2"}, "T": {"type": "DT_VARIANT"}}}, {"name": "StatefulPartitionedCall/model/bidirectional/backward_lstm/PartitionedCall/while/cond/_211/while/Less", "op": "Less", "input": ["StatefulPartitionedCall/model/bidirectional/backward_lstm/PartitionedCall/while/merge/_226", "StatefulPartitionedCall/model/bidirectional/backward_lstm/PartitionedCall/while/merge/_230", "^StatefulPartitionedCall/model/bidirectional/backward_lstm/PartitionedCall/while/merge/_224"], "attr": {"T": {"type": "DT_INT32"}}}, {"name": "StatefulPartitionedCall/model/bidirectional/forward_lstm/PartitionedCall/while/LoopCond/_175", "op": "LoopCond", "input": ["StatefulPartitionedCall/model/bidirectional/forward_lstm/PartitionedCall/while/cond/_151/while/Less"]}, {"name": "StatefulPartitionedCall/model/bidirectional/backward_lstm/PartitionedCall/while/LoopCond/_235", "op": "LoopCond", "input": ["StatefulPartitionedCall/model/bidirectional/backward_lstm/PartitionedCall/while/cond/_211/while/Less"]}, {"name": "StatefulPartitionedCall/model/bidirectional/forward_lstm/PartitionedCall/while/Func/StatefulPartitionedCall/model/bidirectional/forward_lstm/PartitionedCall/input/_131_switch/_181", "op": "Switch", "input": ["StatefulPartitionedCall/model/bidirectional/forward_lstm/PartitionedCall/while/merge/_169", "StatefulPartitionedCall/model/bidirectional/forward_lstm/PartitionedCall/while/LoopCond/_175"], "attr": {"T": {"type": "DT_FLOAT"}}}, {"name": "StatefulPartitionedCall/model/bidirectional/forward_lstm/PartitionedCall/while/StatefulPartitionedCall/model/bidirectional/forward_lstm/PartitionedCall/TensorArrayUnstack/TensorListFromTensor_switch/_183", "op": "Switch", "input": ["StatefulPartitionedCall/model/bidirectional/forward_lstm/PartitionedCall/while/merge/_171", "StatefulPartitionedCall/model/bidirectional/forward_lstm/PartitionedCall/while/LoopCond/_175"], "attr": {"T": {"type": "DT_VARIANT"}}}, {"name": "StatefulPartitionedCall/model/bidirectional/forward_lstm/PartitionedCall/while/Func/StatefulPartitionedCall/model/bidirectional/forward_lstm/PartitionedCall/input/_132_switch/_184", "op": "Switch", "input": ["StatefulPartitionedCall/model/bidirectional/forward_lstm/PartitionedCall/while/merge/_172", "StatefulPartitionedCall/model/bidirectional/forward_lstm/PartitionedCall/while/LoopCond/_175"], "attr": {"T": {"type": "DT_FLOAT"}}}, {"name": "StatefulPartitionedCall/model/bidirectional/forward_lstm/PartitionedCall/while/Func/StatefulPartitionedCall/model/bidirectional/forward_lstm/PartitionedCall/input/_130_switch/_180", "op": "Switch", "input": ["StatefulPartitionedCall/model/bidirectional/forward_lstm/PartitionedCall/while/merge/_168", "StatefulPartitionedCall/model/bidirectional/forward_lstm/PartitionedCall/while/LoopCond/_175"], "attr": {"T": {"type": "DT_FLOAT"}}}, {"name": "StatefulPartitionedCall/model/bidirectional/forward_lstm/PartitionedCall/while/Func/StatefulPartitionedCall/model/bidirectional/forward_lstm/PartitionedCall/input/_133_switch/_185", "op": "Switch", "input": ["StatefulPartitionedCall/model/bidirectional/forward_lstm/PartitionedCall/while/merge/_173", "StatefulPartitionedCall/model/bidirectional/forward_lstm/PartitionedCall/while/LoopCond/_175"], "attr": {"T": {"type": "DT_FLOAT"}}}, {"name": "StatefulPartitionedCall/model/bidirectional/forward_lstm/PartitionedCall/while/Func/StatefulPartitionedCall/model/bidirectional/forward_lstm/PartitionedCall/input/_134_switch/_186", "op": "Switch", "input": ["StatefulPartitionedCall/model/bidirectional/forward_lstm/PartitionedCall/while/merge/_174", "StatefulPartitionedCall/model/bidirectional/forward_lstm/PartitionedCall/while/LoopCond/_175"], "attr": {"T": {"type": "DT_FLOAT"}}}, {"name": "StatefulPartitionedCall/model/bidirectional/forward_lstm/PartitionedCall/while/StatefulPartitionedCall/model/bidirectional/forward_lstm/PartitionedCall/time_switch/_178", "op": "Switch", "input": ["StatefulPartitionedCall/model/bidirectional/forward_lstm/PartitionedCall/while/merge/_166", "StatefulPartitionedCall/model/bidirectional/forward_lstm/PartitionedCall/while/LoopCond/_175"], "attr": {"T": {"type": "DT_INT32"}}}, {"name": "StatefulPartitionedCall/model/bidirectional/forward_lstm/PartitionedCall/while/StatefulPartitionedCall/model/bidirectional/forward_lstm/PartitionedCall/while/loop_counter_switch/_176", "op": "Switch", "input": ["StatefulPartitionedCall/model/bidirectional/forward_lstm/PartitionedCall/while/merge/_164", "StatefulPartitionedCall/model/bidirectional/forward_lstm/PartitionedCall/while/LoopCond/_175"], "attr": {"T": {"type": "DT_INT32"}}}, {"name": "StatefulPartitionedCall/model/bidirectional/forward_lstm/PartitionedCall/while/StatefulPartitionedCall/model/bidirectional/forward_lstm/PartitionedCall/TensorArrayV2_1_switch/_179", "op": "Switch", "input": ["StatefulPartitionedCall/model/bidirectional/forward_lstm/PartitionedCall/while/merge/_167", "StatefulPartitionedCall/model/bidirectional/forward_lstm/PartitionedCall/while/LoopCond/_175"], "attr": {"T": {"type": "DT_VARIANT"}}}, {"name": "StatefulPartitionedCall/model/bidirectional/forward_lstm/PartitionedCall/while/StatefulPartitionedCall/model/bidirectional/forward_lstm/PartitionedCall/strided_slice_switch/_182", "op": "Switch", "input": ["StatefulPartitionedCall/model/bidirectional/forward_lstm/PartitionedCall/while/merge/_170", "StatefulPartitionedCall/model/bidirectional/forward_lstm/PartitionedCall/while/LoopCond/_175"], "attr": {"T": {"type": "DT_INT32"}}}, {"name": "StatefulPartitionedCall/model/bidirectional/backward_lstm/PartitionedCall/while/StatefulPartitionedCall/model/bidirectional/backward_lstm/PartitionedCall/TensorArrayV2_1_switch/_239", "op": "Switch", "input": ["StatefulPartitionedCall/model/bidirectional/backward_lstm/PartitionedCall/while/merge/_227", "StatefulPartitionedCall/model/bidirectional/backward_lstm/PartitionedCall/while/LoopCond/_235"], "attr": {"T": {"type": "DT_VARIANT"}}}, {"name": "StatefulPartitionedCall/model/bidirectional/backward_lstm/PartitionedCall/while/Func/StatefulPartitionedCall/model/bidirectional/backward_lstm/PartitionedCall/input/_142_switch/_241", "op": "Switch", "input": ["StatefulPartitionedCall/model/bidirectional/backward_lstm/PartitionedCall/while/merge/_229", "StatefulPartitionedCall/model/bidirectional/backward_lstm/PartitionedCall/while/LoopCond/_235"], "attr": {"T": {"type": "DT_FLOAT"}}}, {"name": "StatefulPartitionedCall/model/bidirectional/backward_lstm/PartitionedCall/while/StatefulPartitionedCall/model/bidirectional/backward_lstm/PartitionedCall/TensorArrayUnstack/TensorListFromTensor_switch/_243", "op": "Switch", "input": ["StatefulPartitionedCall/model/bidirectional/backward_lstm/PartitionedCall/while/merge/_231", "StatefulPartitionedCall/model/bidirectional/backward_lstm/PartitionedCall/while/LoopCond/_235"], "attr": {"T": {"type": "DT_VARIANT"}}}, {"name": "StatefulPartitionedCall/model/bidirectional/backward_lstm/PartitionedCall/while/Func/StatefulPartitionedCall/model/bidirectional/backward_lstm/PartitionedCall/input/_143_switch/_244", "op": "Switch", "input": ["StatefulPartitionedCall/model/bidirectional/backward_lstm/PartitionedCall/while/merge/_232", "StatefulPartitionedCall/model/bidirectional/backward_lstm/PartitionedCall/while/LoopCond/_235"], "attr": {"T": {"type": "DT_FLOAT"}}}, {"name": "StatefulPartitionedCall/model/bidirectional/backward_lstm/PartitionedCall/while/Func/StatefulPartitionedCall/model/bidirectional/backward_lstm/PartitionedCall/input/_141_switch/_240", "op": "Switch", "input": ["StatefulPartitionedCall/model/bidirectional/backward_lstm/PartitionedCall/while/merge/_228", "StatefulPartitionedCall/model/bidirectional/backward_lstm/PartitionedCall/while/LoopCond/_235"], "attr": {"T": {"type": "DT_FLOAT"}}}, {"name": "StatefulPartitionedCall/model/bidirectional/backward_lstm/PartitionedCall/while/Func/StatefulPartitionedCall/model/bidirectional/backward_lstm/PartitionedCall/input/_144_switch/_245", "op": "Switch", "input": ["StatefulPartitionedCall/model/bidirectional/backward_lstm/PartitionedCall/while/merge/_233", "StatefulPartitionedCall/model/bidirectional/backward_lstm/PartitionedCall/while/LoopCond/_235"], "attr": {"T": {"type": "DT_FLOAT"}}}, {"name": "StatefulPartitionedCall/model/bidirectional/backward_lstm/PartitionedCall/while/Func/StatefulPartitionedCall/model/bidirectional/backward_lstm/PartitionedCall/input/_145_switch/_246", "op": "Switch", "input": ["StatefulPartitionedCall/model/bidirectional/backward_lstm/PartitionedCall/while/merge/_234", "StatefulPartitionedCall/model/bidirectional/backward_lstm/PartitionedCall/while/LoopCond/_235"], "attr": {"T": {"type": "DT_FLOAT"}}}, {"name": "StatefulPartitionedCall/model/bidirectional/backward_lstm/PartitionedCall/while/StatefulPartitionedCall/model/bidirectional/backward_lstm/PartitionedCall/time_switch/_238", "op": "Switch", "input": ["StatefulPartitionedCall/model/bidirectional/backward_lstm/PartitionedCall/while/merge/_226", "StatefulPartitionedCall/model/bidirectional/backward_lstm/PartitionedCall/while/LoopCond/_235"], "attr": {"T": {"type": "DT_INT32"}}}, {"name": "StatefulPartitionedCall/model/bidirectional/backward_lstm/PartitionedCall/while/StatefulPartitionedCall/model/bidirectional/backward_lstm/PartitionedCall/while/loop_counter_switch/_236", "op": "Switch", "input": ["StatefulPartitionedCall/model/bidirectional/backward_lstm/PartitionedCall/while/merge/_224", "StatefulPartitionedCall/model/bidirectional/backward_lstm/PartitionedCall/while/LoopCond/_235"], "attr": {"T": {"type": "DT_INT32"}}}, {"name": "StatefulPartitionedCall/model/bidirectional/backward_lstm/PartitionedCall/while/StatefulPartitionedCall/model/bidirectional/backward_lstm/PartitionedCall/strided_slice_switch/_242", "op": "Switch", "input": ["StatefulPartitionedCall/model/bidirectional/backward_lstm/PartitionedCall/while/merge/_230", "StatefulPartitionedCall/model/bidirectional/backward_lstm/PartitionedCall/while/LoopCond/_235"], "attr": {"T": {"type": "DT_INT32"}}}, {"name": "StatefulPartitionedCall/model/bidirectional/forward_lstm/PartitionedCall/while/loop_body_control/_187", "op": "Identity", "input": ["StatefulPartitionedCall/model/bidirectional/forward_lstm/PartitionedCall/while/StatefulPartitionedCall/model/bidirectional/forward_lstm/PartitionedCall/while/loop_counter_switch/_176:1"], "attr": {"_has_manual_control_dependencies": {"b": true}, "T": {"type": "DT_INT32"}}}, {"name": "StatefulPartitionedCall/model/bidirectional/forward_lstm/PartitionedCall/while/exit/_191", "op": "Exit", "input": ["StatefulPartitionedCall/model/bidirectional/forward_lstm/PartitionedCall/while/StatefulPartitionedCall/model/bidirectional/forward_lstm/PartitionedCall/TensorArrayV2_1_switch/_179"], "attr": {"T": {"type": "DT_VARIANT"}}}, {"name": "StatefulPartitionedCall/model/bidirectional/backward_lstm/PartitionedCall/while/exit/_251", "op": "Exit", "input": ["StatefulPartitionedCall/model/bidirectional/backward_lstm/PartitionedCall/while/StatefulPartitionedCall/model/bidirectional/backward_lstm/PartitionedCall/TensorArrayV2_1_switch/_239"], "attr": {"T": {"type": "DT_VARIANT"}}}, {"name": "StatefulPartitionedCall/model/bidirectional/backward_lstm/PartitionedCall/while/loop_body_control/_247", "op": "Identity", "input": ["StatefulPartitionedCall/model/bidirectional/backward_lstm/PartitionedCall/while/StatefulPartitionedCall/model/bidirectional/backward_lstm/PartitionedCall/while/loop_counter_switch/_236:1"], "attr": {"_has_manual_control_dependencies": {"b": true}, "T": {"type": "DT_INT32"}}}, {"name": "StatefulPartitionedCall/model/bidirectional/forward_lstm/PartitionedCall/while/body/_152/while/split/split_dim", "op": "Const", "input": ["^StatefulPartitionedCall/model/bidirectional/forward_lstm/PartitionedCall/while/loop_body_control/_187"], "attr": {"dtype": {"type": "DT_INT32"}, "value": {"tensor": {"dtype": "DT_INT32", "tensorShape": {}}}}}, {"name": "StatefulPartitionedCall/model/bidirectional/forward_lstm/PartitionedCall/while/next_iteration/_207", "op": "NextIteration", "input": ["StatefulPartitionedCall/model/bidirectional/forward_lstm/PartitionedCall/while/StatefulPartitionedCall/model/bidirectional/forward_lstm/PartitionedCall/TensorArrayUnstack/TensorListFromTensor_switch/_183:1", "^StatefulPartitionedCall/model/bidirectional/forward_lstm/PartitionedCall/while/loop_body_control/_187"], "attr": {"T": {"type": "DT_VARIANT"}}}, {"name": "StatefulPartitionedCall/model/bidirectional/forward_lstm/PartitionedCall/while/body/_152/while/TensorArrayV2Read/TensorListGetItem/element_shape", "op": "Const", "input": ["^StatefulPartitionedCall/model/bidirectional/forward_lstm/PartitionedCall/while/loop_body_control/_187"], "attr": {"dtype": {"type": "DT_INT32"}, "value": {"tensor": {"dtype": "DT_INT32", "tensorShape": {"dim": [{"size": "2"}]}}}}}, {"name": "StatefulPartitionedCall/model/bidirectional/forward_lstm/PartitionedCall/while/next_iteration/_208", "op": "NextIteration", "input": ["StatefulPartitionedCall/model/bidirectional/forward_lstm/PartitionedCall/while/Func/StatefulPartitionedCall/model/bidirectional/forward_lstm/PartitionedCall/input/_132_switch/_184:1", "^StatefulPartitionedCall/model/bidirectional/forward_lstm/PartitionedCall/while/loop_body_control/_187"], "attr": {"T": {"type": "DT_FLOAT"}}}, {"name": "StatefulPartitionedCall/model/bidirectional/forward_lstm/PartitionedCall/while/next_iteration/_209", "op": "NextIteration", "input": ["StatefulPartitionedCall/model/bidirectional/forward_lstm/PartitionedCall/while/Func/StatefulPartitionedCall/model/bidirectional/forward_lstm/PartitionedCall/input/_133_switch/_185:1", "^StatefulPartitionedCall/model/bidirectional/forward_lstm/PartitionedCall/while/loop_body_control/_187"], "attr": {"T": {"type": "DT_FLOAT"}}}, {"name": "StatefulPartitionedCall/model/bidirectional/forward_lstm/PartitionedCall/while/body/_152/while/MatMul_1", "op": "MatMul", "input": ["StatefulPartitionedCall/model/bidirectional/forward_lstm/PartitionedCall/while/Func/StatefulPartitionedCall/model/bidirectional/forward_lstm/PartitionedCall/input/_130_switch/_180:1", "StatefulPartitionedCall/model/bidirectional/forward_lstm/PartitionedCall/while/Func/StatefulPartitionedCall/model/bidirectional/forward_lstm/PartitionedCall/input/_133_switch/_185:1", "^StatefulPartitionedCall/model/bidirectional/forward_lstm/PartitionedCall/while/loop_body_control/_187"], "device": "/device:CPU:0", "attr": {"grad_b": {"b": false}, "transpose_a": {"b": false}, "T": {"type": "DT_FLOAT"}, "transpose_b": {"b": false}, "grad_a": {"b": false}}}, {"name": "StatefulPartitionedCall/model/bidirectional/forward_lstm/PartitionedCall/while/next_iteration/_210", "op": "NextIteration", "input": ["StatefulPartitionedCall/model/bidirectional/forward_lstm/PartitionedCall/while/Func/StatefulPartitionedCall/model/bidirectional/forward_lstm/PartitionedCall/input/_134_switch/_186:1", "^StatefulPartitionedCall/model/bidirectional/forward_lstm/PartitionedCall/while/loop_body_control/_187"], "attr": {"T": {"type": "DT_FLOAT"}}}, {"name": "Func/StatefulPartitionedCall/model/bidirectional/forward_lstm/PartitionedCall/while/body/_152/input/_287", "op": "Identity", "input": ["StatefulPartitionedCall/model/bidirectional/forward_lstm/PartitionedCall/while/StatefulPartitionedCall/model/bidirectional/forward_lstm/PartitionedCall/time_switch/_178:1", "^StatefulPartitionedCall/model/bidirectional/forward_lstm/PartitionedCall/while/loop_body_control/_187"], "attr": {"T": {"type": "DT_INT32"}}}, {"name": "StatefulPartitionedCall/model/bidirectional/forward_lstm/PartitionedCall/while/body/_152/while/add_2/y", "op": "Const", "input": ["^StatefulPartitionedCall/model/bidirectional/forward_lstm/PartitionedCall/while/loop_body_control/_187"], "attr": {"dtype": {"type": "DT_INT32"}, "value": {"tensor": {"dtype": "DT_INT32", "tensorShape": {}}}}}, {"name": "StatefulPartitionedCall/model/bidirectional/forward_lstm/PartitionedCall/while/body/_152/while/add_3/y", "op": "Const", "input": ["^StatefulPartitionedCall/model/bidirectional/forward_lstm/PartitionedCall/while/loop_body_control/_187"], "attr": {"dtype": {"type": "DT_INT32"}, "value": {"tensor": {"dtype": "DT_INT32", "tensorShape": {}}}}}, {"name": "StatefulPartitionedCall/model/bidirectional/forward_lstm/PartitionedCall/while/next_iteration/_206", "op": "NextIteration", "input": ["StatefulPartitionedCall/model/bidirectional/forward_lstm/PartitionedCall/while/StatefulPartitionedCall/model/bidirectional/forward_lstm/PartitionedCall/strided_slice_switch/_182:1", "^StatefulPartitionedCall/model/bidirectional/forward_lstm/PartitionedCall/while/loop_body_control/_187"], "attr": {"T": {"type": "DT_INT32"}}}, {"name": "StatefulPartitionedCall/model/bidirectional/forward_lstm/PartitionedCall/TensorArrayV2Stack/TensorListStack", "op": "TensorListStack", "input": ["StatefulPartitionedCall/model/bidirectional/forward_lstm/PartitionedCall/while/exit/_191", "StatefulPartitionedCall/model/bidirectional/forward_lstm/PartitionedCall/TensorArrayV2Stack/TensorListStack/element_shape"], "attr": {"element_dtype": {"type": "DT_FLOAT"}, "num_elements": {"i": "-1"}}}, {"name": "StatefulPartitionedCall/model/bidirectional/backward_lstm/PartitionedCall/TensorArrayV2Stack/TensorListStack", "op": "TensorListStack", "input": ["StatefulPartitionedCall/model/bidirectional/backward_lstm/PartitionedCall/while/exit/_251", "StatefulPartitionedCall/model/bidirectional/backward_lstm/PartitionedCall/TensorArrayV2Stack/TensorListStack/element_shape"], "attr": {"element_dtype": {"type": "DT_FLOAT"}, "num_elements": {"i": "-1"}}}, {"name": "StatefulPartitionedCall/model/bidirectional/backward_lstm/PartitionedCall/while/body/_212/while/add_2/y", "op": "Const", "input": ["^StatefulPartitionedCall/model/bidirectional/backward_lstm/PartitionedCall/while/loop_body_control/_247"], "attr": {"value": {"tensor": {"dtype": "DT_INT32", "tensorShape": {}}}, "dtype": {"type": "DT_INT32"}}}, {"name": "StatefulPartitionedCall/model/bidirectional/backward_lstm/PartitionedCall/while/body/_212/while/add_3/y", "op": "Const", "input": ["^StatefulPartitionedCall/model/bidirectional/backward_lstm/PartitionedCall/while/loop_body_control/_247"], "attr": {"dtype": {"type": "DT_INT32"}, "value": {"tensor": {"dtype": "DT_INT32", "tensorShape": {}}}}}, {"name": "StatefulPartitionedCall/model/bidirectional/backward_lstm/PartitionedCall/while/body/_212/while/split/split_dim", "op": "Const", "input": ["^StatefulPartitionedCall/model/bidirectional/backward_lstm/PartitionedCall/while/loop_body_control/_247"], "attr": {"dtype": {"type": "DT_INT32"}, "value": {"tensor": {"dtype": "DT_INT32", "tensorShape": {}}}}}, {"name": "StatefulPartitionedCall/model/bidirectional/backward_lstm/PartitionedCall/while/next_iteration/_267", "op": "NextIteration", "input": ["StatefulPartitionedCall/model/bidirectional/backward_lstm/PartitionedCall/while/StatefulPartitionedCall/model/bidirectional/backward_lstm/PartitionedCall/TensorArrayUnstack/TensorListFromTensor_switch/_243:1", "^StatefulPartitionedCall/model/bidirectional/backward_lstm/PartitionedCall/while/loop_body_control/_247"], "attr": {"T": {"type": "DT_VARIANT"}}}, {"name": "StatefulPartitionedCall/model/bidirectional/backward_lstm/PartitionedCall/while/body/_212/while/TensorArrayV2Read/TensorListGetItem/element_shape", "op": "Const", "input": ["^StatefulPartitionedCall/model/bidirectional/backward_lstm/PartitionedCall/while/loop_body_control/_247"], "attr": {"value": {"tensor": {"dtype": "DT_INT32", "tensorShape": {"dim": [{"size": "2"}]}}}, "dtype": {"type": "DT_INT32"}}}, {"name": "StatefulPartitionedCall/model/bidirectional/backward_lstm/PartitionedCall/while/next_iteration/_268", "op": "NextIteration", "input": ["StatefulPartitionedCall/model/bidirectional/backward_lstm/PartitionedCall/while/Func/StatefulPartitionedCall/model/bidirectional/backward_lstm/PartitionedCall/input/_143_switch/_244:1", "^StatefulPartitionedCall/model/bidirectional/backward_lstm/PartitionedCall/while/loop_body_control/_247"], "attr": {"T": {"type": "DT_FLOAT"}}}, {"name": "StatefulPartitionedCall/model/bidirectional/backward_lstm/PartitionedCall/while/next_iteration/_269", "op": "NextIteration", "input": ["StatefulPartitionedCall/model/bidirectional/backward_lstm/PartitionedCall/while/Func/StatefulPartitionedCall/model/bidirectional/backward_lstm/PartitionedCall/input/_144_switch/_245:1", "^StatefulPartitionedCall/model/bidirectional/backward_lstm/PartitionedCall/while/loop_body_control/_247"], "attr": {"T": {"type": "DT_FLOAT"}}}, {"name": "StatefulPartitionedCall/model/bidirectional/backward_lstm/PartitionedCall/while/body/_212/while/MatMul_1", "op": "MatMul", "input": ["StatefulPartitionedCall/model/bidirectional/backward_lstm/PartitionedCall/while/Func/StatefulPartitionedCall/model/bidirectional/backward_lstm/PartitionedCall/input/_141_switch/_240:1", "StatefulPartitionedCall/model/bidirectional/backward_lstm/PartitionedCall/while/Func/StatefulPartitionedCall/model/bidirectional/backward_lstm/PartitionedCall/input/_144_switch/_245:1", "^StatefulPartitionedCall/model/bidirectional/backward_lstm/PartitionedCall/while/loop_body_control/_247"], "device": "/device:CPU:0", "attr": {"grad_a": {"b": false}, "T": {"type": "DT_FLOAT"}, "transpose_a": {"b": false}, "grad_b": {"b": false}, "transpose_b": {"b": false}}}, {"name": "StatefulPartitionedCall/model/bidirectional/backward_lstm/PartitionedCall/while/next_iteration/_270", "op": "NextIteration", "input": ["StatefulPartitionedCall/model/bidirectional/backward_lstm/PartitionedCall/while/Func/StatefulPartitionedCall/model/bidirectional/backward_lstm/PartitionedCall/input/_145_switch/_246:1", "^StatefulPartitionedCall/model/bidirectional/backward_lstm/PartitionedCall/while/loop_body_control/_247"], "attr": {"T": {"type": "DT_FLOAT"}}}, {"name": "Func/StatefulPartitionedCall/model/bidirectional/backward_lstm/PartitionedCall/while/body/_212/input/_324", "op": "Identity", "input": ["StatefulPartitionedCall/model/bidirectional/backward_lstm/PartitionedCall/while/StatefulPartitionedCall/model/bidirectional/backward_lstm/PartitionedCall/time_switch/_238:1", "^StatefulPartitionedCall/model/bidirectional/backward_lstm/PartitionedCall/while/loop_body_control/_247"], "attr": {"T": {"type": "DT_INT32"}}}, {"name": "StatefulPartitionedCall/model/bidirectional/backward_lstm/PartitionedCall/while/next_iteration/_266", "op": "NextIteration", "input": ["StatefulPartitionedCall/model/bidirectional/backward_lstm/PartitionedCall/while/StatefulPartitionedCall/model/bidirectional/backward_lstm/PartitionedCall/strided_slice_switch/_242:1", "^StatefulPartitionedCall/model/bidirectional/backward_lstm/PartitionedCall/while/loop_body_control/_247"], "attr": {"T": {"type": "DT_INT32"}}}, {"name": "StatefulPartitionedCall/model/bidirectional/forward_lstm/PartitionedCall/while/body/_152/while/TensorArrayV2Read/TensorListGetItem", "op": "TensorListGetItem", "input": ["StatefulPartitionedCall/model/bidirectional/forward_lstm/PartitionedCall/while/StatefulPartitionedCall/model/bidirectional/forward_lstm/PartitionedCall/TensorArrayUnstack/TensorListFromTensor_switch/_183:1", "Func/StatefulPartitionedCall/model/bidirectional/forward_lstm/PartitionedCall/while/body/_152/input/_287", "StatefulPartitionedCall/model/bidirectional/forward_lstm/PartitionedCall/while/body/_152/while/TensorArrayV2Read/TensorListGetItem/element_shape"], "attr": {"element_dtype": {"type": "DT_FLOAT"}}}, {"name": "StatefulPartitionedCall/model/bidirectional/forward_lstm/PartitionedCall/while/body/_152/while/add_2", "op": "AddV2", "input": ["Func/StatefulPartitionedCall/model/bidirectional/forward_lstm/PartitionedCall/while/body/_152/input/_287", "StatefulPartitionedCall/model/bidirectional/forward_lstm/PartitionedCall/while/body/_152/while/add_2/y"], "attr": {"T": {"type": "DT_INT32"}}}, {"name": "StatefulPartitionedCall/model/bidirectional/forward_lstm/PartitionedCall/while/body/_152/while/add_3", "op": "AddV2", "input": ["StatefulPartitionedCall/model/bidirectional/forward_lstm/PartitionedCall/while/StatefulPartitionedCall/model/bidirectional/forward_lstm/PartitionedCall/while/loop_counter_switch/_176:1", "StatefulPartitionedCall/model/bidirectional/forward_lstm/PartitionedCall/while/body/_152/while/add_3/y"], "attr": {"T": {"type": "DT_INT32"}}}, {"name": "StatefulPartitionedCall/model/bidirectional/forward_lstm/PartitionedCall/transpose_1", "op": "Transpose", "input": ["StatefulPartitionedCall/model/bidirectional/forward_lstm/PartitionedCall/TensorArrayV2Stack/TensorListStack", "StatefulPartitionedCall/model/bidirectional/forward_lstm/PartitionedCall/transpose_1/perm"], "attr": {"T": {"type": "DT_FLOAT"}, "Tperm": {"type": "DT_INT32"}}}, {"name": "StatefulPartitionedCall/model/bidirectional/backward_lstm/PartitionedCall/transpose_1", "op": "Transpose", "input": ["StatefulPartitionedCall/model/bidirectional/backward_lstm/PartitionedCall/TensorArrayV2Stack/TensorListStack", "StatefulPartitionedCall/model/bidirectional/backward_lstm/PartitionedCall/transpose_1/perm"], "attr": {"Tperm": {"type": "DT_INT32"}, "T": {"type": "DT_FLOAT"}}}, {"name": "StatefulPartitionedCall/model/bidirectional/backward_lstm/PartitionedCall/while/body/_212/while/add_3", "op": "AddV2", "input": ["StatefulPartitionedCall/model/bidirectional/backward_lstm/PartitionedCall/while/StatefulPartitionedCall/model/bidirectional/backward_lstm/PartitionedCall/while/loop_counter_switch/_236:1", "StatefulPartitionedCall/model/bidirectional/backward_lstm/PartitionedCall/while/body/_212/while/add_3/y"], "attr": {"T": {"type": "DT_INT32"}}}, {"name": "StatefulPartitionedCall/model/bidirectional/backward_lstm/PartitionedCall/while/body/_212/while/add_2", "op": "AddV2", "input": ["Func/StatefulPartitionedCall/model/bidirectional/backward_lstm/PartitionedCall/while/body/_212/input/_324", "StatefulPartitionedCall/model/bidirectional/backward_lstm/PartitionedCall/while/body/_212/while/add_2/y"], "attr": {"T": {"type": "DT_INT32"}}}, {"name": "StatefulPartitionedCall/model/bidirectional/backward_lstm/PartitionedCall/while/body/_212/while/TensorArrayV2Read/TensorListGetItem", "op": "TensorListGetItem", "input": ["StatefulPartitionedCall/model/bidirectional/backward_lstm/PartitionedCall/while/StatefulPartitionedCall/model/bidirectional/backward_lstm/PartitionedCall/TensorArrayUnstack/TensorListFromTensor_switch/_243:1", "Func/StatefulPartitionedCall/model/bidirectional/backward_lstm/PartitionedCall/while/body/_212/input/_324", "StatefulPartitionedCall/model/bidirectional/backward_lstm/PartitionedCall/while/body/_212/while/TensorArrayV2Read/TensorListGetItem/element_shape"], "attr": {"element_dtype": {"type": "DT_FLOAT"}}}, {"name": "StatefulPartitionedCall/model/bidirectional/forward_lstm/PartitionedCall/while/body/_152/while/add", "op": "_FusedMatMul", "input": ["StatefulPartitionedCall/model/bidirectional/forward_lstm/PartitionedCall/while/body/_152/while/TensorArrayV2Read/TensorListGetItem", "StatefulPartitionedCall/model/bidirectional/forward_lstm/PartitionedCall/while/Func/StatefulPartitionedCall/model/bidirectional/forward_lstm/PartitionedCall/input/_132_switch/_184:1", "StatefulPartitionedCall/model/bidirectional/forward_lstm/PartitionedCall/while/body/_152/while/MatMul_1"], "device": "/device:CPU:0", "attr": {"transpose_a": {"b": false}, "epsilon": {"f": 0.0}, "leakyrelu_alpha": {"f": 0.2}, "num_args": {"i": "1"}, "T": {"type": "DT_FLOAT"}, "transpose_b": {"b": false}, "fused_ops": {"list": {"s": ["Qmlhc0FkZA=="]}}}}, {"name": "StatefulPartitionedCall/model/bidirectional/forward_lstm/PartitionedCall/while/next_iteration/_202", "op": "NextIteration", "input": ["StatefulPartitionedCall/model/bidirectional/forward_lstm/PartitionedCall/while/body/_152/while/add_2", "^StatefulPartitionedCall/model/bidirectional/forward_lstm/PartitionedCall/while/loop_body_control/_187"], "attr": {"T": {"type": "DT_INT32"}}}, {"name": "StatefulPartitionedCall/model/bidirectional/forward_lstm/PartitionedCall/while/next_iteration/_200", "op": "NextIteration", "input": ["StatefulPartitionedCall/model/bidirectional/forward_lstm/PartitionedCall/while/body/_152/while/add_3", "^StatefulPartitionedCall/model/bidirectional/forward_lstm/PartitionedCall/while/loop_body_control/_187"], "attr": {"T": {"type": "DT_INT32"}}}, {"name": "StatefulPartitionedCall/model/bidirectional/ReverseV2", "op": "ReverseV2", "input": ["StatefulPartitionedCall/model/bidirectional/backward_lstm/PartitionedCall/transpose_1", "StatefulPartitionedCall/model/bidirectional/ReverseV2/axis"], "attr": {"T": {"type": "DT_FLOAT"}, "Tidx": {"type": "DT_INT32"}}}, {"name": "StatefulPartitionedCall/model/bidirectional/backward_lstm/PartitionedCall/while/next_iteration/_260", "op": "NextIteration", "input": ["StatefulPartitionedCall/model/bidirectional/backward_lstm/PartitionedCall/while/body/_212/while/add_3", "^StatefulPartitionedCall/model/bidirectional/backward_lstm/PartitionedCall/while/loop_body_control/_247"], "attr": {"T": {"type": "DT_INT32"}}}, {"name": "StatefulPartitionedCall/model/bidirectional/backward_lstm/PartitionedCall/while/next_iteration/_262", "op": "NextIteration", "input": ["StatefulPartitionedCall/model/bidirectional/backward_lstm/PartitionedCall/while/body/_212/while/add_2", "^StatefulPartitionedCall/model/bidirectional/backward_lstm/PartitionedCall/while/loop_body_control/_247"], "attr": {"T": {"type": "DT_INT32"}}}, {"name": "StatefulPartitionedCall/model/bidirectional/backward_lstm/PartitionedCall/while/body/_212/while/add", "op": "_FusedMatMul", "input": ["StatefulPartitionedCall/model/bidirectional/backward_lstm/PartitionedCall/while/body/_212/while/TensorArrayV2Read/TensorListGetItem", "StatefulPartitionedCall/model/bidirectional/backward_lstm/PartitionedCall/while/Func/StatefulPartitionedCall/model/bidirectional/backward_lstm/PartitionedCall/input/_143_switch/_244:1", "StatefulPartitionedCall/model/bidirectional/backward_lstm/PartitionedCall/while/body/_212/while/MatMul_1"], "device": "/device:CPU:0", "attr": {"num_args": {"i": "1"}, "leakyrelu_alpha": {"f": 0.2}, "transpose_b": {"b": false}, "transpose_a": {"b": false}, "T": {"type": "DT_FLOAT"}, "fused_ops": {"list": {"s": ["Qmlhc0FkZA=="]}}, "epsilon": {"f": 0.0}}}, {"name": "StatefulPartitionedCall/model/bidirectional/forward_lstm/PartitionedCall/while/body/_152/while/BiasAdd", "op": "BiasAdd", "input": ["StatefulPartitionedCall/model/bidirectional/forward_lstm/PartitionedCall/while/body/_152/while/add", "StatefulPartitionedCall/model/bidirectional/forward_lstm/PartitionedCall/while/Func/StatefulPartitionedCall/model/bidirectional/forward_lstm/PartitionedCall/input/_134_switch/_186:1"], "attr": {"T": {"type": "DT_FLOAT"}, "data_format": {"s": "TkhXQw=="}}}, {"name": "StatefulPartitionedCall/model/bidirectional/concat", "op": "ConcatV2", "input": ["StatefulPartitionedCall/model/bidirectional/forward_lstm/PartitionedCall/transpose_1", "StatefulPartitionedCall/model/bidirectional/ReverseV2", "StatefulPartitionedCall/model/bidirectional/concat/axis"], "attr": {"N": {"i": "2"}, "T": {"type": "DT_FLOAT"}, "Tidx": {"type": "DT_INT32"}}}, {"name": "StatefulPartitionedCall/model/bidirectional/backward_lstm/PartitionedCall/while/body/_212/while/BiasAdd", "op": "BiasAdd", "input": ["StatefulPartitionedCall/model/bidirectional/backward_lstm/PartitionedCall/while/body/_212/while/add", "StatefulPartitionedCall/model/bidirectional/backward_lstm/PartitionedCall/while/Func/StatefulPartitionedCall/model/bidirectional/backward_lstm/PartitionedCall/input/_145_switch/_246:1"], "attr": {"data_format": {"s": "TkhXQw=="}, "T": {"type": "DT_FLOAT"}}}, {"name": "StatefulPartitionedCall/model/bidirectional/forward_lstm/PartitionedCall/while/body/_152/while/split", "op": "Split", "input": ["StatefulPartitionedCall/model/bidirectional/forward_lstm/PartitionedCall/while/body/_152/while/split/split_dim", "StatefulPartitionedCall/model/bidirectional/forward_lstm/PartitionedCall/while/body/_152/while/BiasAdd"], "attr": {"T": {"type": "DT_FLOAT"}, "num_split": {"i": "4"}}}, {"name": "StatefulPartitionedCall/model/output/Tensordot/Shape", "op": "Shape", "input": ["StatefulPartitionedCall/model/bidirectional/concat"], "attr": {"T": {"type": "DT_FLOAT"}, "out_type": {"type": "DT_INT32"}}, "experimentalType": {"typeId": "TFT_PRODUCT", "args": [{"typeId": "TFT_SHAPE_TENSOR", "args": [{"typeId": "TFT_INT32"}]}]}}, {"name": "StatefulPartitionedCall/model/bidirectional/backward_lstm/PartitionedCall/while/body/_212/while/split", "op": "Split", "input": ["StatefulPartitionedCall/model/bidirectional/backward_lstm/PartitionedCall/while/body/_212/while/split/split_dim", "StatefulPartitionedCall/model/bidirectional/backward_lstm/PartitionedCall/while/body/_212/while/BiasAdd"], "attr": {"T": {"type": "DT_FLOAT"}, "num_split": {"i": "4"}}}, {"name": "StatefulPartitionedCall/model/bidirectional/forward_lstm/PartitionedCall/while/body/_152/while/Sigmoid", "op": "Sigmoid", "input": ["StatefulPartitionedCall/model/bidirectional/forward_lstm/PartitionedCall/while/body/_152/while/split"], "attr": {"T": {"type": "DT_FLOAT"}}}, {"name": "StatefulPartitionedCall/model/bidirectional/forward_lstm/PartitionedCall/while/body/_152/while/Sigmoid_1", "op": "Sigmoid", "input": ["StatefulPartitionedCall/model/bidirectional/forward_lstm/PartitionedCall/while/body/_152/while/split:1"], "attr": {"T": {"type": "DT_FLOAT"}}}, {"name": "StatefulPartitionedCall/model/bidirectional/forward_lstm/PartitionedCall/while/body/_152/while/Tanh", "op": "Tanh", "input": ["StatefulPartitionedCall/model/bidirectional/forward_lstm/PartitionedCall/while/body/_152/while/split:2"], "attr": {"T": {"type": "DT_FLOAT"}}}, {"name": "StatefulPartitionedCall/model/bidirectional/forward_lstm/PartitionedCall/while/body/_152/while/Sigmoid_2", "op": "Sigmoid", "input": ["StatefulPartitionedCall/model/bidirectional/forward_lstm/PartitionedCall/while/body/_152/while/split:3"], "attr": {"T": {"type": "DT_FLOAT"}}}, {"name": "StatefulPartitionedCall/model/output/Tensordot/GatherV2_1", "op": "GatherV2", "input": ["StatefulPartitionedCall/model/output/Tensordot/Shape", "StatefulPartitionedCall/model/output/Tensordot/axes", "StatefulPartitionedCall/model/output/Tensordot/GatherV2_1/axis"], "attr": {"batch_dims": {"i": "0"}, "Tindices": {"type": "DT_INT32"}, "Tparams": {"type": "DT_INT32"}, "Taxis": {"type": "DT_INT32"}}}, {"name": "StatefulPartitionedCall/model/output/Tensordot/GatherV2", "op": "GatherV2", "input": ["StatefulPartitionedCall/model/output/Tensordot/Shape", "StatefulPartitionedCall/model/output/Tensordot/free", "StatefulPartitionedCall/model/output/Tensordot/GatherV2/axis"], "attr": {"batch_dims": {"i": "0"}, "Tindices": {"type": "DT_INT32"}, "Taxis": {"type": "DT_INT32"}, "Tparams": {"type": "DT_INT32"}}}, {"name": "StatefulPartitionedCall/model/bidirectional/backward_lstm/PartitionedCall/while/body/_212/while/Sigmoid", "op": "Sigmoid", "input": ["StatefulPartitionedCall/model/bidirectional/backward_lstm/PartitionedCall/while/body/_212/while/split"], "attr": {"T": {"type": "DT_FLOAT"}}}, {"name": "StatefulPartitionedCall/model/bidirectional/backward_lstm/PartitionedCall/while/body/_212/while/Sigmoid_1", "op": "Sigmoid", "input": ["StatefulPartitionedCall/model/bidirectional/backward_lstm/PartitionedCall/while/body/_212/while/split:1"], "attr": {"T": {"type": "DT_FLOAT"}}}, {"name": "StatefulPartitionedCall/model/bidirectional/backward_lstm/PartitionedCall/while/body/_212/while/Tanh", "op": "Tanh", "input": ["StatefulPartitionedCall/model/bidirectional/backward_lstm/PartitionedCall/while/body/_212/while/split:2"], "attr": {"T": {"type": "DT_FLOAT"}}}, {"name": "StatefulPartitionedCall/model/bidirectional/backward_lstm/PartitionedCall/while/body/_212/while/Sigmoid_2", "op": "Sigmoid", "input": ["StatefulPartitionedCall/model/bidirectional/backward_lstm/PartitionedCall/while/body/_212/while/split:3"], "attr": {"T": {"type": "DT_FLOAT"}}}, {"name": "StatefulPartitionedCall/model/bidirectional/forward_lstm/PartitionedCall/while/body/_152/while/mul", "op": "Mul", "input": ["StatefulPartitionedCall/model/bidirectional/forward_lstm/PartitionedCall/while/body/_152/while/Sigmoid_1", "StatefulPartitionedCall/model/bidirectional/forward_lstm/PartitionedCall/while/Func/StatefulPartitionedCall/model/bidirectional/forward_lstm/PartitionedCall/input/_131_switch/_181:1"], "attr": {"T": {"type": "DT_FLOAT"}}}, {"name": "StatefulPartitionedCall/model/bidirectional/forward_lstm/PartitionedCall/while/body/_152/while/mul_1", "op": "Mul", "input": ["StatefulPartitionedCall/model/bidirectional/forward_lstm/PartitionedCall/while/body/_152/while/Sigmoid", "StatefulPartitionedCall/model/bidirectional/forward_lstm/PartitionedCall/while/body/_152/while/Tanh"], "attr": {"T": {"type": "DT_FLOAT"}}}, {"name": "StatefulPartitionedCall/model/output/Tensordot/Prod_1", "op": "Prod", "input": ["StatefulPartitionedCall/model/output/Tensordot/GatherV2_1", "StatefulPartitionedCall/model/output/Tensordot/Const_1"], "attr": {"keep_dims": {"b": false}, "Tidx": {"type": "DT_INT32"}, "T": {"type": "DT_INT32"}}}, {"name": "StatefulPartitionedCall/model/output/Tensordot/Prod", "op": "Prod", "input": ["StatefulPartitionedCall/model/output/Tensordot/GatherV2", "StatefulPartitionedCall/model/output/Tensordot/Const"], "attr": {"Tidx": {"type": "DT_INT32"}, "keep_dims": {"b": false}, "T": {"type": "DT_INT32"}}}, {"name": "StatefulPartitionedCall/model/output/Tensordot/concat_1", "op": "ConcatV2", "input": ["StatefulPartitionedCall/model/output/Tensordot/GatherV2", "StatefulPartitionedCall/model/output/Tensordot/Const_2", "StatefulPartitionedCall/model/output/Tensordot/concat_1/axis"], "attr": {"N": {"i": "2"}, "T": {"type": "DT_INT32"}, "Tidx": {"type": "DT_INT32"}}}, {"name": "StatefulPartitionedCall/model/bidirectional/backward_lstm/PartitionedCall/while/body/_212/while/mul", "op": "Mul", "input": ["StatefulPartitionedCall/model/bidirectional/backward_lstm/PartitionedCall/while/body/_212/while/Sigmoid_1", "StatefulPartitionedCall/model/bidirectional/backward_lstm/PartitionedCall/while/Func/StatefulPartitionedCall/model/bidirectional/backward_lstm/PartitionedCall/input/_142_switch/_241:1"], "attr": {"T": {"type": "DT_FLOAT"}}}, {"name": "StatefulPartitionedCall/model/bidirectional/backward_lstm/PartitionedCall/while/body/_212/while/mul_1", "op": "Mul", "input": ["StatefulPartitionedCall/model/bidirectional/backward_lstm/PartitionedCall/while/body/_212/while/Sigmoid", "StatefulPartitionedCall/model/bidirectional/backward_lstm/PartitionedCall/while/body/_212/while/Tanh"], "attr": {"T": {"type": "DT_FLOAT"}}}, {"name": "StatefulPartitionedCall/model/bidirectional/forward_lstm/PartitionedCall/while/body/_152/while/add_1", "op": "AddV2", "input": ["StatefulPartitionedCall/model/bidirectional/forward_lstm/PartitionedCall/while/body/_152/while/mul", "StatefulPartitionedCall/model/bidirectional/forward_lstm/PartitionedCall/while/body/_152/while/mul_1"], "attr": {"T": {"type": "DT_FLOAT"}}}, {"name": "StatefulPartitionedCall/model/output/Tensordot/stack", "op": "Pack", "input": ["StatefulPartitionedCall/model/output/Tensordot/Prod", "StatefulPartitionedCall/model/output/Tensordot/Prod_1"], "attr": {"T": {"type": "DT_INT32"}, "N": {"i": "2"}, "axis": {"i": "0"}}}, {"name": "StatefulPartitionedCall/model/bidirectional/backward_lstm/PartitionedCall/while/body/_212/while/add_1", "op": "AddV2", "input": ["StatefulPartitionedCall/model/bidirectional/backward_lstm/PartitionedCall/while/body/_212/while/mul", "StatefulPartitionedCall/model/bidirectional/backward_lstm/PartitionedCall/while/body/_212/while/mul_1"], "attr": {"T": {"type": "DT_FLOAT"}}}, {"name": "StatefulPartitionedCall/model/bidirectional/forward_lstm/PartitionedCall/while/body/_152/while/Tanh_1", "op": "Tanh", "input": ["StatefulPartitionedCall/model/bidirectional/forward_lstm/PartitionedCall/while/body/_152/while/add_1"], "attr": {"T": {"type": "DT_FLOAT"}}}, {"name": "StatefulPartitionedCall/model/bidirectional/forward_lstm/PartitionedCall/while/next_iteration/_205", "op": "NextIteration", "input": ["StatefulPartitionedCall/model/bidirectional/forward_lstm/PartitionedCall/while/body/_152/while/add_1", "^StatefulPartitionedCall/model/bidirectional/forward_lstm/PartitionedCall/while/loop_body_control/_187"], "attr": {"T": {"type": "DT_FLOAT"}}}, {"name": "StatefulPartitionedCall/model/output/Tensordot/Reshape", "op": "Reshape", "input": ["StatefulPartitionedCall/model/bidirectional/concat", "StatefulPartitionedCall/model/output/Tensordot/stack"], "attr": {"Tshape": {"type": "DT_INT32"}, "T": {"type": "DT_FLOAT"}}}, {"name": "StatefulPartitionedCall/model/bidirectional/backward_lstm/PartitionedCall/while/body/_212/while/Tanh_1", "op": "Tanh", "input": ["StatefulPartitionedCall/model/bidirectional/backward_lstm/PartitionedCall/while/body/_212/while/add_1"], "attr": {"T": {"type": "DT_FLOAT"}}}, {"name": "StatefulPartitionedCall/model/bidirectional/backward_lstm/PartitionedCall/while/next_iteration/_265", "op": "NextIteration", "input": ["StatefulPartitionedCall/model/bidirectional/backward_lstm/PartitionedCall/while/body/_212/while/add_1", "^StatefulPartitionedCall/model/bidirectional/backward_lstm/PartitionedCall/while/loop_body_control/_247"], "attr": {"T": {"type": "DT_FLOAT"}}}, {"name": "StatefulPartitionedCall/model/bidirectional/forward_lstm/PartitionedCall/while/body/_152/while/mul_2", "op": "Mul", "input": ["StatefulPartitionedCall/model/bidirectional/forward_lstm/PartitionedCall/while/body/_152/while/Sigmoid_2", "StatefulPartitionedCall/model/bidirectional/forward_lstm/PartitionedCall/while/body/_152/while/Tanh_1"], "attr": {"T": {"type": "DT_FLOAT"}}}, {"name": "StatefulPartitionedCall/model/output/Tensordot/MatMul", "op": "MatMul", "input": ["StatefulPartitionedCall/model/output/Tensordot/Reshape", "StatefulPartitionedCall/model/output/Tensordot/ReadVariableOp"], "device": "/device:CPU:0", "attr": {"grad_a": {"b": false}, "transpose_b": {"b": false}, "transpose_a": {"b": false}, "T": {"type": "DT_FLOAT"}, "grad_b": {"b": false}}}, {"name": "StatefulPartitionedCall/model/bidirectional/backward_lstm/PartitionedCall/while/body/_212/while/mul_2", "op": "Mul", "input": ["StatefulPartitionedCall/model/bidirectional/backward_lstm/PartitionedCall/while/body/_212/while/Sigmoid_2", "StatefulPartitionedCall/model/bidirectional/backward_lstm/PartitionedCall/while/body/_212/while/Tanh_1"], "attr": {"T": {"type": "DT_FLOAT"}}}, {"name": "StatefulPartitionedCall/model/bidirectional/forward_lstm/PartitionedCall/while/next_iteration/_204", "op": "NextIteration", "input": ["StatefulPartitionedCall/model/bidirectional/forward_lstm/PartitionedCall/while/body/_152/while/mul_2", "^StatefulPartitionedCall/model/bidirectional/forward_lstm/PartitionedCall/while/loop_body_control/_187"], "attr": {"T": {"type": "DT_FLOAT"}}}, {"name": "StatefulPartitionedCall/model/bidirectional/forward_lstm/PartitionedCall/while/body/_152/while/TensorArrayV2Write/TensorListSetItem", "op": "TensorListSetItem", "input": ["StatefulPartitionedCall/model/bidirectional/forward_lstm/PartitionedCall/while/StatefulPartitionedCall/model/bidirectional/forward_lstm/PartitionedCall/TensorArrayV2_1_switch/_179:1", "Func/StatefulPartitionedCall/model/bidirectional/forward_lstm/PartitionedCall/while/body/_152/input/_287", "StatefulPartitionedCall/model/bidirectional/forward_lstm/PartitionedCall/while/body/_152/while/mul_2"], "attr": {"element_dtype": {"type": "DT_FLOAT"}, "resize_if_index_out_of_bounds": {"b": false}}, "experimentalType": {"typeId": "TFT_PRODUCT", "args": [{"typeId": "TFT_ARRAY", "args": [{"typeId": "TFT_TENSOR", "args": [{"typeId": "TFT_FLOAT"}]}]}]}}, {"name": "StatefulPartitionedCall/model/output/Tensordot", "op": "Reshape", "input": ["StatefulPartitionedCall/model/output/Tensordot/MatMul", "StatefulPartitionedCall/model/output/Tensordot/concat_1"], "attr": {"T": {"type": "DT_FLOAT"}, "Tshape": {"type": "DT_INT32"}}}, {"name": "StatefulPartitionedCall/model/bidirectional/backward_lstm/PartitionedCall/while/body/_212/while/TensorArrayV2Write/TensorListSetItem", "op": "TensorListSetItem", "input": ["StatefulPartitionedCall/model/bidirectional/backward_lstm/PartitionedCall/while/StatefulPartitionedCall/model/bidirectional/backward_lstm/PartitionedCall/TensorArrayV2_1_switch/_239:1", "Func/StatefulPartitionedCall/model/bidirectional/backward_lstm/PartitionedCall/while/body/_212/input/_324", "StatefulPartitionedCall/model/bidirectional/backward_lstm/PartitionedCall/while/body/_212/while/mul_2"], "attr": {"resize_if_index_out_of_bounds": {"b": false}, "element_dtype": {"type": "DT_FLOAT"}}, "experimentalType": {"typeId": "TFT_PRODUCT", "args": [{"typeId": "TFT_ARRAY", "args": [{"typeId": "TFT_TENSOR", "args": [{"typeId": "TFT_FLOAT"}]}]}]}}, {"name": "StatefulPartitionedCall/model/bidirectional/backward_lstm/PartitionedCall/while/next_iteration/_264", "op": "NextIteration", "input": ["StatefulPartitionedCall/model/bidirectional/backward_lstm/PartitionedCall/while/body/_212/while/mul_2", "^StatefulPartitionedCall/model/bidirectional/backward_lstm/PartitionedCall/while/loop_body_control/_247"], "attr": {"T": {"type": "DT_FLOAT"}}}, {"name": "StatefulPartitionedCall/model/bidirectional/forward_lstm/PartitionedCall/while/next_iteration/_203", "op": "NextIteration", "input": ["StatefulPartitionedCall/model/bidirectional/forward_lstm/PartitionedCall/while/body/_152/while/TensorArrayV2Write/TensorListSetItem", "^StatefulPartitionedCall/model/bidirectional/forward_lstm/PartitionedCall/while/loop_body_control/_187"], "attr": {"T": {"type": "DT_VARIANT"}}}, {"name": "StatefulPartitionedCall/model/output/BiasAdd", "op": "BiasAdd", "input": ["StatefulPartitionedCall/model/output/Tensordot", "StatefulPartitionedCall/model/output/BiasAdd/ReadVariableOp"], "attr": {"data_format": {"s": "TkhXQw=="}, "T": {"type": "DT_FLOAT"}}}, {"name": "StatefulPartitionedCall/model/bidirectional/backward_lstm/PartitionedCall/while/next_iteration/_263", "op": "NextIteration", "input": ["StatefulPartitionedCall/model/bidirectional/backward_lstm/PartitionedCall/while/body/_212/while/TensorArrayV2Write/TensorListSetItem", "^StatefulPartitionedCall/model/bidirectional/backward_lstm/PartitionedCall/while/loop_body_control/_247"], "attr": {"T": {"type": "DT_VARIANT"}}}, {"name": "StatefulPartitionedCall/model/output/Softmax", "op": "Softmax", "input": ["StatefulPartitionedCall/model/output/BiasAdd"], "attr": {"T": {"type": "DT_FLOAT"}}}, {"name": "Identity", "op": "Identity", "input": ["StatefulPartitionedCall/model/output/Softmax"], "attr": {"T": {"type": "DT_FLOAT"}}}], "library": {}, "versions": {"producer": 1766}}, "weightsManifest": [{"paths": ["group1-shard1of1.bin"], "weights": [{"name": "StatefulPartitionedCall/model/output/Tensordot/Const", "shape": [1], "dtype": "int32"}, {"name": "StatefulPartitionedCall/model/output/Tensordot/axes", "shape": [1], "dtype": "int32"}, {"name": "StatefulPartitionedCall/model/output/Tensordot/GatherV2_1/axis", "shape": [], "dtype": "int32"}, {"name": "StatefulPartitionedCall/model/output/Tensordot/Const_1", "shape": [1], "dtype": "int32"}, {"name": "StatefulPartitionedCall/model/output/Tensordot/ReadVariableOp", "shape": [256, 75], "dtype": "float32"}, {"name": "StatefulPartitionedCall/model/bidirectional/forward_lstm/PartitionedCall/TensorArrayV2_1/element_shape", "shape": [2], "dtype": "int32"}, {"name": "StatefulPartitionedCall/model/bidirectional/forward_lstm/zeros_1/packed/1", "shape": [], "dtype": "int32"}, {"name": "StatefulPartitionedCall/model/bidirectional/forward_lstm/zeros_1/Const", "shape": [], "dtype": "float32"}, {"name": "StatefulPartitionedCall/model/bidirectional/forward_lstm/PartitionedCall/TensorArrayUnstack/TensorListFromTensor/element_shape", "shape": [2], "dtype": "int32"}, {"name": "StatefulPartitionedCall/model/bidirectional/forward_lstm/Read/ReadVariableOp", "shape": [64, 512], "dtype": "float32"}, {"name": "StatefulPartitionedCall/model/bidirectional/forward_lstm/strided_slice/stack", "shape": [1], "dtype": "int32"}, {"name": "StatefulPartitionedCall/model/bidirectional/forward_lstm/strided_slice/stack_1", "shape": [1], "dtype": "int32"}, {"name": "StatefulPartitionedCall/model/bidirectional/forward_lstm/strided_slice/stack_2", "shape": [1], "dtype": "int32"}, {"name": "StatefulPartitionedCall/model/bidirectional/forward_lstm/zeros/packed/1", "shape": [], "dtype": "int32"}, {"name": "StatefulPartitionedCall/model/bidirectional/forward_lstm/zeros/Const", "shape": [], "dtype": "float32"}, {"name": "StatefulPartitionedCall/model/bidirectional/forward_lstm/Read_1/ReadVariableOp", "shape": [128, 512], "dtype": "float32"}, {"name": "StatefulPartitionedCall/model/bidirectional/forward_lstm/Read_2/ReadVariableOp", "shape": [512], "dtype": "float32"}, {"name": "StatefulPartitionedCall/model/bidirectional/forward_lstm/PartitionedCall/time", "shape": [], "dtype": "int32"}, {"name": "StatefulPartitionedCall/model/bidirectional/forward_lstm/PartitionedCall/transpose/perm", "shape": [3], "dtype": "int32"}, {"name": "StatefulPartitionedCall/model/bidirectional/forward_lstm/PartitionedCall/strided_slice/stack", "shape": [1], "dtype": "int32"}, {"name": "StatefulPartitionedCall/model/bidirectional/forward_lstm/PartitionedCall/strided_slice/stack_1", "shape": [1], "dtype": "int32"}, {"name": "StatefulPartitionedCall/model/bidirectional/forward_lstm/PartitionedCall/strided_slice/stack_2", "shape": [1], "dtype": "int32"}, {"name": "StatefulPartitionedCall/model/bidirectional/forward_lstm/PartitionedCall/while/loop_counter", "shape": [], "dtype": "int32"}, {"name": "StatefulPartitionedCall/model/bidirectional/forward_lstm/PartitionedCall/TensorArrayV2Stack/TensorListStack/element_shape", "shape": [2], "dtype": "int32"}, {"name": "StatefulPartitionedCall/model/bidirectional/forward_lstm/PartitionedCall/transpose_1/perm", "shape": [3], "dtype": "int32"}, {"name": "StatefulPartitionedCall/model/bidirectional/backward_lstm/PartitionedCall/TensorArrayV2_1/element_shape", "shape": [2], "dtype": "int32"}, {"name": "StatefulPartitionedCall/model/bidirectional/backward_lstm/zeros_1/packed/1", "shape": [], "dtype": "int32"}, {"name": "StatefulPartitionedCall/model/bidirectional/backward_lstm/zeros_1/Const", "shape": [], "dtype": "float32"}, {"name": "StatefulPartitionedCall/model/bidirectional/backward_lstm/PartitionedCall/ReverseV2/axis", "shape": [1], "dtype": "int32"}, {"name": "StatefulPartitionedCall/model/bidirectional/backward_lstm/PartitionedCall/TensorArrayUnstack/TensorListFromTensor/element_shape", "shape": [2], "dtype": "int32"}, {"name": "StatefulPartitionedCall/model/bidirectional/backward_lstm/Read/ReadVariableOp", "shape": [64, 512], "dtype": "float32"}, {"name": "StatefulPartitionedCall/model/bidirectional/backward_lstm/strided_slice/stack", "shape": [1], "dtype": "int32"}, {"name": "StatefulPartitionedCall/model/bidirectional/backward_lstm/strided_slice/stack_1", "shape": [1], "dtype": "int32"}, {"name": "StatefulPartitionedCall/model/bidirectional/backward_lstm/strided_slice/stack_2", "shape": [1], "dtype": "int32"}, {"name": "StatefulPartitionedCall/model/bidirectional/backward_lstm/zeros/packed/1", "shape": [], "dtype": "int32"}, {"name": "StatefulPartitionedCall/model/bidirectional/backward_lstm/zeros/Const", "shape": [], "dtype": "float32"}, {"name": "StatefulPartitionedCall/model/bidirectional/backward_lstm/Read_1/ReadVariableOp", "shape": [128, 512], "dtype": "float32"}, {"name": "StatefulPartitionedCall/model/bidirectional/backward_lstm/Read_2/ReadVariableOp", "shape": [512], "dtype": "float32"}, {"name": "StatefulPartitionedCall/model/bidirectional/backward_lstm/PartitionedCall/time", "shape": [], "dtype": "int32"}, {"name": "ConstantFolding/StatefulPartitionedCall/model/lambda/truediv_recip", "shape": [], "dtype": "float32"}, {"name": "StatefulPartitionedCall/model/conv2d_2/Conv2D/ReadVariableOp", "shape": [1, 1, 3, 16], "dtype": "float32"}, {"name": "StatefulPartitionedCall/model/conv2d_2/BiasAdd/ReadVariableOp", "shape": [16], "dtype": "float32"}, {"name": "StatefulPartitionedCall/model/conv2d_5/Conv2D/ReadVariableOp", "shape": [1, 1, 16, 16], "dtype": "float32"}, {"name": "StatefulPartitionedCall/model/conv2d_5/BiasAdd/ReadVariableOp", "shape": [16], "dtype": "float32"}, {"name": "StatefulPartitionedCall/model/conv2d_10/Conv2D/ReadVariableOp", "shape": [1, 1, 16, 32], "dtype": "float32"}, {"name": "StatefulPartitionedCall/model/conv2d_10/BiasAdd/ReadVariableOp", "shape": [32], "dtype": "float32"}, {"name": "StatefulPartitionedCall/model/conv2d_15/Conv2D/ReadVariableOp", "shape": [1, 1, 32, 64], "dtype": "float32"}, {"name": "StatefulPartitionedCall/model/conv2d_15/BiasAdd/ReadVariableOp", "shape": [64], "dtype": "float32"}, {"name": "StatefulPartitionedCall/model/conv2d_18/Conv2D/ReadVariableOp", "shape": [1, 1, 64, 64], "dtype": "float32"}, {"name": "StatefulPartitionedCall/model/conv2d_18/BiasAdd/ReadVariableOp", "shape": [64], "dtype": "float32"}, {"name": "StatefulPartitionedCall/model/reshape/strided_slice/stack", "shape": [1], "dtype": "int32"}, {"name": "StatefulPartitionedCall/model/reshape/strided_slice/stack_1", "shape": [1], "dtype": "int32"}, {"name": "StatefulPartitionedCall/model/reshape/strided_slice/stack_2", "shape": [1], "dtype": "int32"}, {"name": "StatefulPartitionedCall/model/reshape/Reshape/shape/1", "shape": [], "dtype": "int32"}, {"name": "StatefulPartitionedCall/model/reshape/Reshape/shape/2", "shape": [], "dtype": "int32"}, {"name": "StatefulPartitionedCall/model/bidirectional/backward_lstm/PartitionedCall/transpose/perm", "shape": [3], "dtype": "int32"}, {"name": "StatefulPartitionedCall/model/bidirectional/backward_lstm/PartitionedCall/strided_slice/stack", "shape": [1], "dtype": "int32"}, {"name": "StatefulPartitionedCall/model/bidirectional/backward_lstm/PartitionedCall/strided_slice/stack_1", "shape": [1], "dtype": "int32"}, {"name": "StatefulPartitionedCall/model/bidirectional/backward_lstm/PartitionedCall/strided_slice/stack_2", "shape": [1], "dtype": "int32"}, {"name": "StatefulPartitionedCall/model/bidirectional/backward_lstm/PartitionedCall/while/loop_counter", "shape": [], "dtype": "int32"}, {"name": "StatefulPartitionedCall/model/bidirectional/backward_lstm/PartitionedCall/TensorArrayV2Stack/TensorListStack/element_shape", "shape": [2], "dtype": "int32"}, {"name": "StatefulPartitionedCall/model/bidirectional/backward_lstm/PartitionedCall/transpose_1/perm", "shape": [3], "dtype": "int32"}, {"name": "StatefulPartitionedCall/model/bidirectional/ReverseV2/axis", "shape": [1], "dtype": "int32"}, {"name": "StatefulPartitionedCall/model/bidirectional/concat/axis", "shape": [], "dtype": "int32"}, {"name": "StatefulPartitionedCall/model/output/Tensordot/free", "shape": [2], "dtype": "int32"}, {"name": "StatefulPartitionedCall/model/output/Tensordot/GatherV2/axis", "shape": [], "dtype": "int32"}, {"name": "StatefulPartitionedCall/model/output/Tensordot/Const_2", "shape": [1], "dtype": "int32"}, {"name": "StatefulPartitionedCall/model/output/Tensordot/concat_1/axis", "shape": [], "dtype": "int32"}, {"name": "StatefulPartitionedCall/model/output/BiasAdd/ReadVariableOp", "shape": [75], "dtype": "float32"}, {"name": "StatefulPartitionedCall/model/conv2d/Conv2D_weights", "shape": [3, 3, 3, 16], "dtype": "float32"}, {"name": "StatefulPartitionedCall/model/conv2d/Conv2D_bn_offset", "shape": [16], "dtype": "float32"}, {"name": "StatefulPartitionedCall/model/conv2d_1/Conv2D_weights", "shape": [3, 3, 16, 16], "dtype": "float32"}, {"name": "StatefulPartitionedCall/model/conv2d_1/Conv2D_bn_offset", "shape": [16], "dtype": "float32"}, {"name": "StatefulPartitionedCall/model/conv2d_3/Conv2D_weights", "shape": [3, 3, 16, 16], "dtype": "float32"}, {"name": "StatefulPartitionedCall/model/conv2d_3/Conv2D_bn_offset", "shape": [16], "dtype": "float32"}, {"name": "StatefulPartitionedCall/model/conv2d_4/Conv2D_weights", "shape": [3, 3, 16, 16], "dtype": "float32"}, {"name": "StatefulPartitionedCall/model/conv2d_4/Conv2D_bn_offset", "shape": [16], "dtype": "float32"}, {"name": "StatefulPartitionedCall/model/conv2d_6/Conv2D_weights", "shape": [3, 3, 16, 16], "dtype": "float32"}, {"name": "StatefulPartitionedCall/model/conv2d_6/Conv2D_bn_offset", "shape": [16], "dtype": "float32"}, {"name": "StatefulPartitionedCall/model/conv2d_7/Conv2D_weights", "shape": [3, 3, 16, 16], "dtype": "float32"}, {"name": "StatefulPartitionedCall/model/conv2d_7/Conv2D_bn_offset", "shape": [16], "dtype": "float32"}, {"name": "StatefulPartitionedCall/model/conv2d_8/Conv2D_weights", "shape": [3, 3, 16, 32], "dtype": "float32"}, {"name": "StatefulPartitionedCall/model/conv2d_8/Conv2D_bn_offset", "shape": [32], "dtype": "float32"}, {"name": "StatefulPartitionedCall/model/conv2d_9/Conv2D_weights", "shape": [3, 3, 32, 32], "dtype": "float32"}, {"name": "StatefulPartitionedCall/model/conv2d_9/Conv2D_bn_offset", "shape": [32], "dtype": "float32"}, {"name": "StatefulPartitionedCall/model/conv2d_11/Conv2D_weights", "shape": [3, 3, 32, 32], "dtype": "float32"}, {"name": "StatefulPartitionedCall/model/conv2d_11/Conv2D_bn_offset", "shape": [32], "dtype": "float32"}, {"name": "StatefulPartitionedCall/model/conv2d_12/Conv2D_weights", "shape": [3, 3, 32, 32], "dtype": "float32"}, {"name": "StatefulPartitionedCall/model/conv2d_12/Conv2D_bn_offset", "shape": [32], "dtype": "float32"}, {"name": "StatefulPartitionedCall/model/conv2d_13/Conv2D_weights", "shape": [3, 3, 32, 64], "dtype": "float32"}, {"name": "StatefulPartitionedCall/model/conv2d_13/Conv2D_bn_offset", "shape": [64], "dtype": "float32"}, {"name": "StatefulPartitionedCall/model/conv2d_14/Conv2D_weights", "shape": [3, 3, 64, 64], "dtype": "float32"}, {"name": "StatefulPartitionedCall/model/conv2d_14/Conv2D_bn_offset", "shape": [64], "dtype": "float32"}, {"name": "StatefulPartitionedCall/model/conv2d_16/Conv2D_weights", "shape": [3, 3, 64, 64], "dtype": "float32"}, {"name": "StatefulPartitionedCall/model/conv2d_16/Conv2D_bn_offset", "shape": [64], "dtype": "float32"}, {"name": "StatefulPartitionedCall/model/conv2d_17/Conv2D_weights", "shape": [3, 3, 64, 64], "dtype": "float32"}, {"name": "StatefulPartitionedCall/model/conv2d_17/Conv2D_bn_offset", "shape": [64], "dtype": "float32"}, {"name": "StatefulPartitionedCall/model/conv2d_19/Conv2D_weights", "shape": [3, 3, 64, 64], "dtype": "float32"}, {"name": "StatefulPartitionedCall/model/conv2d_19/Conv2D_bn_offset", "shape": [64], "dtype": "float32"}, {"name": "StatefulPartitionedCall/model/conv2d_20/Conv2D_weights", "shape": [3, 3, 64, 64], "dtype": "float32"}, {"name": "StatefulPartitionedCall/model/conv2d_20/Conv2D_bn_offset", "shape": [64], "dtype": "float32"}, {"name": "StatefulPartitionedCall/model/conv2d_21/Conv2D_weights", "shape": [3, 3, 64, 64], "dtype": "float32"}, {"name": "StatefulPartitionedCall/model/conv2d_21/Conv2D_bn_offset", "shape": [64], "dtype": "float32"}, {"name": "StatefulPartitionedCall/model/conv2d_22/Conv2D_weights", "shape": [3, 3, 64, 64], "dtype": "float32"}, {"name": "StatefulPartitionedCall/model/conv2d_22/Conv2D_bn_offset", "shape": [64], "dtype": "float32"}, {"name": "StatefulPartitionedCall/model/bidirectional/forward_lstm/PartitionedCall/while/body/_152/while/split/split_dim", "shape": [], "dtype": "int32"}, {"name": "StatefulPartitionedCall/model/bidirectional/forward_lstm/PartitionedCall/while/body/_152/while/TensorArrayV2Read/TensorListGetItem/element_shape", "shape": [2], "dtype": "int32"}, {"name": "StatefulPartitionedCall/model/bidirectional/forward_lstm/PartitionedCall/while/body/_152/while/add_2/y", "shape": [], "dtype": "int32"}, {"name": "StatefulPartitionedCall/model/bidirectional/forward_lstm/PartitionedCall/while/body/_152/while/add_3/y", "shape": [], "dtype": "int32"}, {"name": "StatefulPartitionedCall/model/bidirectional/backward_lstm/PartitionedCall/while/body/_212/while/add_2/y", "shape": [], "dtype": "int32"}, {"name": "StatefulPartitionedCall/model/bidirectional/backward_lstm/PartitionedCall/while/body/_212/while/add_3/y", "shape": [], "dtype": "int32"}, {"name": "StatefulPartitionedCall/model/bidirectional/backward_lstm/PartitionedCall/while/body/_212/while/split/split_dim", "shape": [], "dtype": "int32"}, {"name": "StatefulPartitionedCall/model/bidirectional/backward_lstm/PartitionedCall/while/body/_212/while/TensorArrayV2Read/TensorListGetItem/element_shape", "shape": [2], "dtype": "int32"}]}]}